surrogate/lstm_second_surr.pt (torch, 864395 bytes, 13 tensors)

weight_ih_l0 f4 [256, 512]
0.112815276 0.11678972 -0.0080879675 0.11455581 0.027071213 -0.028804746 0.011529139 -0.034532107
-0.06341337 0.11210507 0.1289064 0.09856756 -0.044457525 -0.031630572 -0.07419338 0.0864909
0.0677837 -0.041208193 -0.05206787 0.068962604 -0.061133206 -0.09084734 -0.055800904 -0.10989638
-0.03602301 -0.0103503615 0.029590053 -0.026912116 -0.031799797 0.09647135 0.05571409 -0.0075636557
-0.104030766 0.07503697 0.10015514 -0.07843057 -0.10352504 0.07265462 -0.07252246 0.040697534
0.11429383 0.012218704 0.046121098 0.12817898 0.11967399 -0.06634049 -0.0016896076 0.092012815
-0.03536213 0.023699524 -0.0624345 0.0078794295 0.07803533 -0.09301143 0.06788207 0.10966147
-0.026755951 0.017888937 0.03597663 -0.07922948 0.076104894 0.10363412 -0.095740005 0.115604036
0.11051068 0.014709898 0.008594128 0.054577265 0.06211484 -0.11255635 -0.09628334 0.006431103
0.097271994 0.101118095 0.033334713 0.0061378684 0.10272558 -0.04607363 0.032975674 -0.025789278
-0.007707703 0.0797121 -0.10233154 -0.10965166 -0.06513052 -0.13131729 0.017371401 0.12396296
0.07260835 -0.029862082 0.0922062 -0.023163464 0.032224536 -0.08305379 -0.020129636 0.038238045
-0.11319604 -0.023742016 0.06300379 0.029094413 0.056137383 -0.009275971 -0.081724614 -0.12926662
-0.09506956 0.103269465 0.06768451 0.045145534 0.017061686 -0.10731587 0.075103775 0.115524516
-0.003453897 0.09038057 -0.087698616 0.056563903 -0.10387752 0.050099514 0.043545775 -0.108872816
0.06502771 -0.10825312 0.02065648 0.023721311 0.039894626 0.072488256 0.02570473 0.098673284
-0.052111976 -0.02074919 -0.05311474 0.08842693 0.06946512 0.01755481 0.1346501 0.081101514
-0.045602627 0.037064154 0.02821433 0.0076116202 -0.074825 0.0064113424 0.059824716 -0.006471597
-0.09447159 0.0036370896 0.06978623 0.020006198 0.0016908348 -0.013390095 -0.030815497 -0.1218569
0.04888634 -0.017209113 0.1081101 0.05065505 0.029066384 0.0078102974 -0.004234555 0.056717653
0.015070867 0.04225978 -0.07993202 -0.12971695 -0.10811845 0.03270312 -0.053692654 -0.10107806
0.011396308 -0.023175707 -0.06494478 0.021377143 -0.06471202 0.05927946 -0.022969615 -0.08423831
-0.1045287 0.045140885 -0.065050244 -0.12710533 -0.11321806 0.020001866 -0.10282201 0.062967196
-0.11520887 -0.06372371 -0.016659714 -0.085365415 -0.12902512 0.059374727 -0.10172475 -0.07035313
0.08668273 -0.074479125 -0.0046701115 -0.121837884 0.093329564 -0.008694868 -0.037396017 0.10822737
-0.00982905 0.019825608 0.11371514 0.01132986 -0.08904298 -0.048198372 -0.043062847 0.11384871
0.062089026 -0.008433271 0.05811368 0.10630025 -0.07289984 0.016482007 -0.0014230448 -0.1210185
0.014168114 0.111181006 0.0022768741 -0.012126209 -0.060893316 0.02028585 -0.113331445 -0.095365554
-0.038158473 -0.014931608 0.046802573 -0.11050367 0.01990801 0.045504708 -0.009921853 -0.07508828
0.08924586 -0.10338966 0.11467882 -0.04024965 0.02781013 -0.12204151 -0.037223835 0.09008215
0.036773372 0.026272006 0.07650956 0.020245433 0.033791833 0.0035260874 0.09093008 -0.082292065
0.13130501 -0.11879755 0.109330304 -0.014628845 -0.0022642903 -0.03551896 0.013251652 -0.09494198
00000000: b20b e73d 732f ef3d 6583 04bc 3d9c ea3d
00000010: 73c4 dd3c eef7 ebbc b7e4 3c3c 8a71 0dbd
00000020: dede 81bd 5897 e53d 0a00 043e cadd c93d
00000030: 1819 36bd 0f8f 01bd b3f2 97bd 2422 b13d
00000040: 2ed2 8a3d ecc9 28bd 1e45 55bd 443c 8d3d
00000050: d066 7abd 2c0e babd 7d8f 64bd 5a11 e1bd
00000060: dd8c 13bd 9094 29bc d766 f23c cc76 dcbc
00000070: 8140 02bd c592 c53d 7534 643d 8bd8 f7bb
00000080: 150e d5bd fcac 993d 231e cd3d 35a0 a0bd
00000090: f004 d4bd f2cb 943d a886 94bd 75b2 263d
000000a0: e212 ea3d f630 483c 7ae9 3c3d 5a41 033e
000000b0: a317 f53d 86dd 87bd d375 ddba 3771 bc3d
000000c0: e1d7 10bd 8125 c23c 51bb 7fbd b918 013c
000000d0: fdd0 9f3d c77c bebd c105 8b3d 3196 e03d
000000e0: 4c2f dbbc d28b 923c 3b5c 133d 1143 a2bd
000000f0: e2dc 9b3d 203e d43d 5613 c4bd cfc1 ec3d
00000100: 6c53 e23d c901 713c 63ce 0c3c 698c 5f3d
00000110: 216c 7e3d f283 e6bd 3330 c5bd 01bc d23b
00000120: 8a36 c73d 0117 cf3d fb89 083d 2c20 c93b
00000130: ca61 d23d b4b7 3cbd 8011 073d 0944 d3bc
00000140: e690 fcbb 1940 a33d 3393 d1bd 0d91 e0bd
00000150: 2663 85bd 0a78 06be 784e 8e3c 4be0 fd3d
00000160: b0b3 943d 53a1 f4bc 9bd6 bc3d 4ec1 bdbc
00000170: e0fd 033d 1b18 aabd e8e6 a4bc 7f9f 1c3d
00000180: 53d3 e7bd 9e7e c2bc 2208 813d 6857 ee3c
00000190: 50f0 653d 3efa 17bc 3c5f a7bd 785e 04be
000001a0: d4b3 c2bd f17e d33d 2d9e 8a3d 86ea 383d
000001b0: f3c4 8b3c 6cc8 dbbd 02d0 993d 1e98 ec3d
000001c0: c75a 62bb 7319 b93d 559b b3bd 8daf 673d
000001d0: bdbd d4bd 2635 4d3d 0e5d 323d b6f8 debd
000001e0: 3f2d 853d d0b3 ddbd c737 a93c 3253 c23c
000001f0: 8c68 233d b974 943d ba92 d23c 3815 ca3d
00000200: 5e73 55bd 35fa a9bc d78e 59bd 2e19 b53d
00000210: bb43 8e3d 1bcf 8f3c b7e1 093e 8d18 a63d
00000220: d2c9 3abd 95d0 173d bd21 e73c e66a f93b
00000230: d93d 99bd 3d16 d23b c30a 753d b10f d4bb
00000240: 527a c1bd 3d5c 6e3b 15ec 8e3d 0ae4 a33c
00000250: 009f dd3a 2162 5bbc c870 fcbc 1c90 f9bd
00000260: 0b3d 483d 20fa 8cbc d468 dd3d ab7b 4f3d
00000270: a01c ee3c 86ed ff3b 06c2 8abb c550 683d
00000280: cceb 763c 9718 2d3d 66b3 a3bd 85d4 04be
00000290: 356d ddbd b5f3 053d d4ec 5bbd 0402 cfbd
000002a0: 95b7 3a3c fbda bdbc c501 85bd 1e1f af3c
000002b0: bc87 84bd 05cf 723d c62a bcbc 2385 acbd
000002c0: 2513 d6bd a6e5 383d 1039 85bd e627 02be
000002d0: dfde e7bd f4da a33c 5994 d2bd f2f4 803d
000002e0: a1f2 ebbd 9481 82bd f479 88bc 10d4 aebd
000002f0: 291f 04be ea32 733d 1155 d0bd 4d15 90bd
00000300: b786 b13d 8388 98bd bc07 99bb 2486 f9bd
00000310: 9223 bf3d eb74 0ebc 912c 19bd 50a6 dd3d
00000320: 060a 21bc 5069 a23c 7ce3 e83d e1a0 393c
00000330: 2a5c b6bd a86b 45bd ab62 30bd 8329 e93d
00000340: 1051 7e3d b42b 0abc 9c08 6e3d f2b3 d93d
00000350: 834c 95bd 4605 873c 7685 baba 8cd8 f7bd
00000360: 6121 683c deb2 e33d 9c37 153b 02ad 46bc
00000370: 456b 79bd 832e a63c 511a e8bd 044f c3bd
00000380: 0f4c 1cbd b4a3 74bc 0eb4 3f3d c04f e2bd
00000390: 1f16 a33c 2563 3a3d 458f 22bc e2c7 99bd
000003a0: 89c6 b63d f5bd d3bd bbdc ea3d d1dc 24bd
000003b0: 12d2 e33c e6f0 f9bd 0578 18bd fe7c b83d
000003c0: ad9f 163d 6438 d73c 0bb1 9c3d c0d9 a53c
000003d0: 4e69 0a3d ee15 673b 8d39 ba3d be88 a8bd
000003e0: d274 063e 214c f3bd 91e8 df3d d3ad 6fbc
000003f0: 7d64 14bb 547c 11bd 751d 593c f170 c2bd

weight_hh_l0 f4 [256, 64]
-0.09223434 0.13472089 0.050207 -0.07637445 0.0633793 -0.07135168 -0.008023854 -0.005623621
0.018754885 -0.012311044 -0.018990086 -0.10263533 0.04997394 -0.08060445 0.018512582 -0.054178093
-0.09615734 0.059600018 0.03678716 0.0072233686 0.009061173 0.08528821 -0.020071445 0.014148893
-0.012497485 0.09526632 -0.12433189 -0.097294636 -0.123325266 0.045854878 0.037952054 0.0896705
0.031307906 -0.11355441 0.0148693705 0.0056538754 -0.11056973 -0.041061394 -0.09845098 -0.11420806
0.045070607 0.032832388 0.06786683 -0.03889638 0.054226484 0.097267136 0.011457469 0.07003097
0.03843029 -0.108654805 -0.060332734 0.0076592346 0.13206778 0.028816363 -0.10893887 0.031098932
0.028408341 0.10844032 0.0326555 0.028826453 -0.11086363 0.052493326 0.039254934 0.108828
0.018123865 -0.11992466 0.022665955 -0.11998352 0.026443807 -0.0044841906 0.030926054 0.027310524
-0.0814967 -0.09862542 0.019012988 0.067538925 0.068750836 -0.00062218605 -0.003641332 -0.10850005
0.11127201 -0.113794915 -0.10273608 -0.08521207 0.07486304 0.1230128 0.11128855 0.113065846
-0.111832395 -0.11573615 -0.03654563 0.04958778 0.06632107 0.06725151 -0.0329492 0.02282241
-0.072167166 -0.12213872 0.00083275745 0.11932435 0.070653915 0.09257559 0.037733756 -0.047695506
0.11370353 -0.0059450795 0.10563033 -0.09175458 0.045881208 -0.1138229 0.017717613 0.09700421
-0.12017767 0.026574578 0.010617774 0.12134561 0.08785605 -0.09168473 -0.048421383 -0.049142476
0.12208415 -0.040675946 -0.068774596 -0.07942939 0.114384055 -0.057821598 -0.042643238 0.08147157
0.07689179 -0.10459799 0.030900078 0.08168491 0.06287086 -0.03495185 0.043782637 0.082373485
-0.040110495 0.024391694 0.07775929 0.053874988 0.09520714 -0.11637373 0.07673664 0.1134739
-0.099186845 0.0862829 -0.108063005 -0.1150577 -0.07732203 -0.007798344 -0.09773639 -0.11669178
-0.071906604 -0.07481647 0.067042276 0.0043786312 -0.074789256 -0.043059777 0.019281685 -0.031998504
0.007699472 -0.0059093293 -0.10933493 -0.059389688 0.019227557 -0.09252253 0.07697506 -0.034799885
0.107072756 -0.1039712 -0.076558985 0.07873913 -0.10137581 0.10279768 0.019913387 0.005881598
0.0904646 -0.056853574 0.086830884 -0.0067112623 -0.075608484 -0.017950939 0.07579618 -0.097785816
0.05395645 -0.05002743 0.00815195 -0.0051572258 -0.09918105 -0.0023566978 0.005964781 0.110335134
0.07540582 -0.060728885 0.123960055 0.02331846 -0.027314957 0.12998247 0.010691822 0.03390208
0.048770107 -0.048656814 -0.011953141 0.1336824 0.09462146 -0.04432309 -0.005221062 -0.09167879
0.08296202 0.07764384 -0.098752216 0.03289404 -0.10578079 0.04917538 0.12833412 -0.08054266
0.08900307 -0.035406973 0.091354385 -0.07853875 0.1124777 -0.05486543 0.041176166 -0.052430183
-0.10724793 -0.08709944 -0.03458866 0.1013143 -0.052518114 -0.027861744 -0.033672977 -0.113702424
0.09963584 0.059866335 -0.031392604 0.05679246 0.077383876 0.060060948 0.013736694 0.04883705
0.07935774 -0.030995743 0.020622533 -0.009794244 0.10223406 -0.06731814 0.11227437 0.027987713
-0.011262948 0.061222862 -0.08735638 0.036528047 0.02033527 -0.090062834 -0.040907323 -0.0050334325
00000000: 5ce5 bcbd 46f4 093e dba5 4d3d 356a 9cbd
00000010: 02cd 813d d420 92bd 7c76 03bc 5a46 b8bb
00000020: d8a3 993c 43b4 49bc 1991 9bbc 7932 d2bd
00000030: 79b1 4c3d f213 a5bd b3a7 973c d9e9 5dbd
00000040: 24ee c4bd 261f 743d 22ae 163d 02b2 ec3b
00000050: 5075 143c 96ab ae3d df6c a4bc c2d0 673c
00000060: 40c2 4cbc fd1a c33d b8a1 febd 6942 c7bd
00000070: f591 fcbd 53d2 3b3d 9d73 1b3d 2ba5 b73d
00000080: b83c 003d 378f e8bd a99e 733c 2544 b93b
00000090: 6272 e2bd fe2f 28bd aba0 c9bd eae5 e9bd
000000a0: f59b 383d 417b 063d c4fd 8a3d d051 1fbd
000000b0: 971c 5e3d fe33 c73d 1cb8 3b3c 666c 8f3d
000000c0: 1469 1d3d 6986 debd 751f 77bd 51fa fa3b
000000d0: c73c 073e 4b10 ec3c 581b dfbd 30c3 fe3c
000000e0: 9cb8 e83c f515 de3d c6c1 053d 7425 ec3c
000000f0: 790c e3bd 3e03 573d c8c9 203d 37e1 de3d
00000100: 8078 943c 0f9b f5bd f4ad b93c ebb9 f5bd
00000110: afa0 d83c 1ef0 92bb a358 fd3c 52ba df3c
00000120: bee7 a6bd 20fc c9bd 20c1 9b3c d951 8a3d
00000130: 3dcd 8c3d 331a 23ba 6aa3 6ebb 4635 debd
00000140: 94e2 e33d 4f0d e9bd 4b67 d2bd aa83 aebd
00000150: cb51 993d 23ee fb3d 40eb e33d 118f e73d
00000160: 6208 e5bd 1307 edbd dfb0 15bd 8e1c 4b3d
00000170: 57d3 873d 29bb 893d bef5 06bd 10f6 ba3c
00000180: 61cc 93bd dd23 fabd 684d 5a3a 5360 f43d
00000190: 00b3 903d 4598 bd3d b68e 1a3d 5d5c 43bd
000001a0: 65dd e83d f1ce c2bb b754 d83d d3e9 bbbd
000001b0: efed 3b3d fb1b e9bd 8724 913c 25aa c63d
000001c0: b61f f6bd eeb2 d93c 2cf6 2d3c 0c84 f83d
000001d0: dfed b33d 34c5 bbbd 8055 46bd 9f49 49bd
000001e0: 4107 fa3d d29b 26bd b2d9 8cbd e0ab a2bd
000001f0: 3042 ea3d 57d6 6cbd adaa 2ebd 91da a63d
00000200: 7179 9d3d 7937 d6bd 2922 fd3c 6b4a a73d
00000210: 70c2 803d ac29 0fbd 6c55 333d 6eb3 a83d
00000220: e74a 24bd 17d1 c73c 4340 9f3d 05ac 5c3d
00000230: f6fb c23d 5a55 eebd 1928 9d3d 0165 e83d
00000240: 7922 cbbd 17b5 b03d 2350 ddbd 5fa3 ebbd
00000250: 035b 9ebd 4089 ffbb 042a c8bd 1afc eebd
00000260: c543 93bd 6139 99bd 764d 893d 9f7a 8f3b
00000270: 1c2b 99bd 735f 30bd a0f4 9d3c dd10 03bd
00000280: da4b fc3b 0ca3 c1bb feea dfbd 9a42 73bd
00000290: 1c83 9d3c 747c bdbd 1aa5 9d3d 538a 0ebd
000002a0: f648 db3d daee d4bd f5ca 9cbd fb41 a13d
000002b0: 1f9e cfbd 9787 d23d 6621 a33c 6cba c03b
000002c0: 8145 b93d 4bdf 68bd 64d4 b13d 26ea dbbb
000002d0: 9fd8 9abd d90d 93bc 073b 9b3d ee43 c8bd
000002e0: 7001 5d3d 90e9 4cbd c28f 053c f2fd a8bb
000002f0: 6f1f cbbd d472 1abb 3674 c33b 63f7 e13d
00000300: 5e6e 9a3d dabe 78bd c5de fd3d 5b06 bf3c
00000310: 9ec3 dfbc 201a 053e c02c 2f3c e8dc 0a3d
00000320: 2ac3 473d 5e4c 47bd 1bd7 43bc 0ae4 083e
00000330: e5c8 c13d 218c 35bd 7115 abbb 17c2 bbbd
00000340: fee7 a93d bc03 9f3d 9a3e cabd e7bb 063d
00000350: 99a3 d8bd 206c 493d 056a 033e 8df3 a4bd
00000360: 3e47 b63d e706 11bd 0218 bb3d edd8 a0bd
00000370: b55a e63d 93ba 60bd 57a8 283d 08c1 56bd
00000380: cda4 dbbd 3161 b2bd d7ac 0dbd df7d cf3d
00000390: 3c1d 57bd 503e e4bc adec 09bd d1dc e8bd
000003a0: e00d cc3d 6736 753d 8895 00bd 369f 683d
000003b0: 707b 9e3d 7802 763d df0f 613c 5c09 483d
000003c0: 5086 a23d c9ea fdbc 96f0 a83c 0978 20bc
000003d0: 1760 d13d 18de 89bd 1bf0 e53d 7d46 e53c
000003e0: 3a88 38bc d3c4 7a3d e7e7 b2bd 6f9e 153d
000003f0: 2796 a63c dd72 b8bd 708e 27bd 7eef a4bb

bias_ih_l0 f4 [256]
0.056400448 -0.09186054 -0.110498436 0.09774613 -0.02434272 -0.022360556 0.050098512 -0.010860182
-0.0060205255 0.10624525 0.11355595 0.06714389 0.018642955 -0.026011424 -0.02216374 0.047193974
-0.09312828 -0.017635895 0.07311237 -0.101451285 -0.007869318 0.06349094 0.056904826 -0.066097096
0.06911084 0.13386154 0.06881423 0.10227324 -0.0010508527 -0.065194264 0.06203124 -0.023650175
0.039918315 0.056897853 -0.044567876 -0.00043885756 -0.11497662 -0.06983048 0.11583213 -0.0791837
0.13445602 -0.08174051 0.11652632 0.00718568 0.025628543 0.097461626 0.0858137 0.07766953
0.10252222 0.031160567 0.11423046 -0.07743702 0.00083180645 0.05981501 -0.10939522 0.043596104
0.12538244 -0.0019384872 -0.113062434 0.08744172 0.02600904 -0.06553219 0.00773724 0.07710904
-0.08077095 0.0013087805 0.12089713 0.012930275 -0.09523836 0.12839104 0.040647753 -0.013745237
-0.111462705 0.07878514 -0.08604277 0.1126783 0.08062276 0.06237923 -0.024803303 -0.08418147
-0.07776455 -0.048883278 0.04064807 0.0981435 0.067951016 -0.06901574 0.011943381 -0.076322116
0.11972097 -0.0726429 0.017271204 0.11381673 0.07244155 -0.012415651 -0.05472286 -0.083017804
0.054971058 -0.06742885 -0.027657103 -0.06450925 0.11883447 0.0046137064 -0.05832572 0.04880524
0.024050616 0.015861358 -0.04645086 0.015733156 -0.104318336 -0.04352203 -0.006583202 0.1341852
0.05567413 -0.113540836 -0.026415577 -0.03121267 -0.03333751 0.018881943 -0.08618493 -0.05672817
-0.015727596 -0.11141927 -0.063628964 0.08176299 -0.05134447 0.07072143 0.061016813 0.03836273
-0.046181668 0.08770572 -0.009234182 -0.074523814 -0.09692239 -0.103019394 0.106057055 -0.030088631
-0.07394283 -0.109084435 -0.08189377 0.010897394 0.07850849 -0.06525558 0.0054785316 -0.0867211
0.028418029 -0.029114315 0.10679949 0.118065685 -0.06590329 0.025411619 0.09779618 -0.101016715
-0.09958235 0.06369741 -0.0067586023 0.13707463 -0.10167328 -0.10284201 0.0382478 0.0921989
0.10417354 -0.06994892 0.13264284 0.0028184433 -0.04209502 -0.07375413 0.09515498 0.061819933
-0.08198953 -0.011969975 0.09344872 0.028067268 -0.042086847 -0.04342649 0.03497613 -0.092361204
-0.08515251 0.102703325 -0.043773625 0.101372756 0.12830578 0.022952037 -0.063685514 -0.060816213
0.12503538 0.057024375 0.023744432 -0.1256727 0.12876095 -0.12450984 -0.047191914 0.10904191
0.12971155 0.0222189 0.043045267 0.04852009 -0.03519346 0.100759104 0.018576505 0.008942959
0.044641748 -0.062136475 -0.07770678 -0.008648225 0.006566648 0.050680753 0.04095052 0.10085332
0.10491257 -0.056607585 -0.09997859 0.08689797 0.08102388 -0.06834472 -0.100376874 0.054468278
0.085356325 0.016525103 0.11413285 -0.07090945 -0.006082788 0.03167711 0.10166713 0.03080123
0.035432506 0.0681643 0.11206725 -0.09379523 -0.015841503 -0.08625487 0.10286005 -0.013637068
0.027876848 -0.08684646 0.006135365 0.09543436 0.097284526 0.062100485 0.04307506 -0.0645613
0.120984964 0.06533618 0.1088632 -0.01534754 -0.04043755 0.041153003 -0.0076372228 0.032720752
-0.0065939655 -0.10528979 -0.058453996 -0.034798805 0.025938958 -0.017359596 0.10285055 0.12225356
00000000: 2804 673d 6121 bcbd 014d e2bd 1f2f c83d
00000010: 626a c7bc 7c2d b7bc 1934 4d3d e8ee 31bc
00000020: d447 c5bb 1c97 d93d 0690 e83d bc82 893d
00000030: 1cb9 983c e915 d5bc bb90 b5bc 784e 413d
00000040: 0aba bebd 2779 90bc f0bb 953d b1c5 cfbd
00000050: 50ee 00bc 8a07 823d 0915 693d ea5d 87bd
00000060: fc89 8d3d 0013 093e 7aee 8c3d a274 d13d
00000070: c4bc 89ba 9284 85bd 7814 7e3d 03be c1bc
00000080: 6381 233d b90d 693d ce8c 36bd 7716 e6b9
00000090: dd78 ebbd 4803 8fbd 6539 ed3d 102b a2bd
000000a0: d7ae 093e 9267 a7bd 5aa5 ee3d da75 eb3b
000000b0: f3f2 d13c f699 c73d 18bf af3d 3411 9f3d
000000c0: 2bf7 d13d 7244 ff3c a9f1 e93d 4d97 9ebd
000000d0: 960d 5a3a 9500 753d 9a0a e0bd d491 323d
000000e0: 4164 003e d614 feba 478d e7bd a514 b33d
000000f0: e910 d53c be35 86bd ac88 fd3b 58eb 9d3d
00000100: 3d6b a5bd 638b ab3a ea98 f73d 81d9 533c
00000110: 540c c3bd f178 033e 427e 263d b433 61bc
00000120: 8f46 e4bd 1a5a a13d 3137 b0bd e1c3 e63d
00000130: 8c1d a53d 5d81 7f3d 4c30 cbbc 5667 acbd
00000140: 0543 9fbd d539 48bd 977e 263d 76ff c83d
00000150: e729 8b3d 2058 8dbd 2cae 433c c54e 9cbd
00000160: 4530 f53d cdc5 94bd 577c 8d3c bf18 e93d
00000170: 3c5c 943d 046b 4bbc 1425 60bd 3d05 aabd
00000180: 5529 613d 2318 8abd 2691 e2bc 6d1d 84bd
00000190: 7d5f f33d 932e 973b f3e6 6ebd 01e8 473d
000001a0: cc05 c53c aeef 813c 4243 3ebd d2e2 803c
000001b0: daa4 d5bd 2844 32bd e7b7 d7bb d867 093e
000001c0: 8e0a 643d 1988 e8bd 7b65 d8bc b7b1 ffbc
000001d0: ea8c 08bd 4eae 9a3c b981 b0bd cc5b 68bd
000001e0: 29d7 80bc c92f e4bd e74f 82bd 5b73 a73d
000001f0: 944e 52bd 66d6 903d c4ec 793d 3d22 1d3d
00000200: fd28 3dbd 0e9f b33d f74a 17bc f19f 98bd
00000210: 3f7f c6bd d5fb d2bd 7134 d93d 6f7c f6bc
00000220: 576f 97bd a967 dfbd ecb7 a7bd fc8a 323c
00000230: 0fc9 a03d b8a4 85bd 4185 b33b d59a b1bd
00000240: edcc e83c 2581 eebc b1b9 da3d 6ccc f13d
00000250: 4ef8 86bd 072c d03c 5d49 c83d dae1 cebd
00000260: d5f1 cbbd ca73 823d 4477 ddbb 4b5d 0c3e
00000270: 153a d0bd d59e d2bd baa9 1c3d c7d2 bc3d
00000280: f058 d53d 6141 8fbd 86d3 073e a2b5 383b
00000290: d46b 2cbd 680c 97bd 9de0 c23d e636 7d3d
000002a0: 20ea a7bd b71d 44bc 0b62 bf3d 54ed e53c
000002b0: 4263 2cbd fadf 31bd 2143 0f3d df27 bdbd
000002c0: 7064 aebd 1f56 d23d f94b 33bd 859c cf3d
000002d0: 9762 033e e905 bc3c 8d6d 82bd 6c1a 79bd
000002e0: 4609 003e 6492 693d af83 c23c 58b0 00be
000002f0: e9d9 033e 04ff febd 4f4c 41bd 5d51 df3d
00000300: 1bd3 043e 6904 b63c 3c50 303d 00bd 463d
00000310: 0427 10bd ca5a ce3d c12d 983c 7d85 123c
00000320: 44da 363d d182 7ebd bb24 9fbd 49b1 0dbc
00000330: 092d d73b 9f96 4f3d bcbb 273d 2f8c ce3d
00000340: 67dc d63d 5bdd 67bd 93c1 ccbd 90f7 b13d
00000350: d9ef a53d 51f8 8bbd 6492 cdbd 211a 5f3d
00000360: 4ccf ae3d a75f 873c 7cbe e93d f938 91bd
00000370: 2052 c7bb dbbf 013d db36 d03d dc52 fc3c
00000380: ad21 113d b999 8b3d 8483 e53d b717 c0bd
00000390: 0ac6 81bc 65a6 b0bd 4aa8 d23d 026e 5fbc
000003a0: fd5d e43c 8fdc b1bd 2c0b c93b 1773 c33d
000003b0: 1c3d c73d 145d 7e3d 796f 303d b738 84bd
000003c0: f7c6 f73d face 853d abf3 de3d 4074 7bbc
000003d0: d8a1 25bd 0d90 283d ab41 fabb 3206 063d
000003e0: 3112 d8bb 2ca2 d7bd 756d 6fbd 3189 0ebd
000003f0: f07d d43c b635 8ebc 4fa3 d23d 1360 fa3d

bias_hh_l0 f4 [256]
-0.024849216 0.09431345 0.123310976 -0.05828603 0.09394488 -0.005026234 -0.057534482 0.100323275
0.009429557 0.071834736 0.13274972 -0.10553583 -0.074006364 0.015520062 -0.027061254 -0.108955
-0.063039236 -0.052767556 -0.046121955 -0.03574564 0.10470057 0.08738035 -0.0002268073 0.10089283
-0.035298914 0.123681895 0.019522253 0.063428655 -0.020158742 -0.029741408 -0.044886123 0.072877206
-0.08353795 0.023561025 0.12030118 0.068168044 0.06702063 0.0103568835 0.05737091 -0.0925159
-0.057844624 -0.09393647 0.11659706 -0.031706445 -0.11195427 -0.107632816 0.04708913 -0.10787371
0.02398057 0.100035354 0.035869837 0.014681035 0.043737177 0.06933418 0.039767604 -0.10510798
0.036295168 -0.0018549219 0.12199112 -0.08104547 -0.048128396 0.006468647 -0.052462935 -0.018821767
-0.09412526 0.06370686 -0.113637164 0.08542111 0.1324778 0.112383515 0.085455365 -0.03410596
0.113278784 -0.106835485 -0.079559706 -0.024413945 0.13259627 -0.12514114 -0.08302413 -0.021099702
-0.059671525 -0.059573162 0.08357366 0.08939728 -0.070757166 -0.029428652 0.06590381 0.058217186
0.07743839 -0.05668371 -0.11808647 -0.0021158224 0.11312628 0.035933048 -0.085355595 0.07341269
0.0872627 -0.06744888 -0.097332895 -0.024137923 -0.041500587 -0.093446 0.06643727 -0.03916378
-0.09522194 -0.09485101 0.04335194 -0.10621814 -0.07140736 -0.08559764 -0.03277822 -0.08619252
0.11463054 -0.032003712 0.08533639 0.062249046 0.017772911 0.13161339 0.13017112 -0.09623149
-0.0015997743 -0.066332884 0.059097417 0.009039395 -0.09983945 0.0331514 0.0052818228 -0.03862797
0.105501145 0.018174032 0.12141543 -0.06755769 -0.02354583 0.0746749 0.029061018 0.1011501
0.124515705 -0.1282746 0.030644266 0.103707306 0.080530085 -0.052045554 0.03250417 0.01383975
0.031795684 0.10396462 0.034940463 0.061534084 0.01635602 -0.05282383 0.022028651 0.017516468
-0.11929441 0.07564589 -0.05213943 0.10662854 -0.038800422 0.1312989 -0.025635455 -0.07884409
-0.008126089 0.097509965 0.054177318 0.113415256 -0.0089820195 0.016984247 0.033390794 0.079655334
0.11811279 -0.008062553 -0.054896742 0.089758866 0.043422498 -0.072415374 0.09223609 0.08650289
-0.015139211 0.0024132123 0.025494725 -0.021064198 0.08059271 0.11543043 -0.08515543 0.032667115
-0.08337209 -0.098528236 -0.054649014 0.0059357835 0.08432666 -0.09204477 -0.07220927 0.038296692
0.12083439 -0.03159458 0.10134419 0.09742444 -0.100601 0.018811822 -0.029690737 0.052686233
0.040046915 -0.05483262 0.13009855 -0.050857134 -0.01851127 -0.10994517 -0.088717386 0.08899658
0.09863085 0.106708005 -0.011752742 -0.07688065 -0.112096615 -0.095339514 0.0046882187 -0.045814853
-0.0491909 0.0011300808 -0.001988816 0.13681982 -0.025511488 0.090639845 0.023835575 -0.02668447
0.0011444747 0.043895993 -0.059627138 0.064279556 -0.08664388 0.092667125 0.112589136 0.07895567
-0.07459819 -0.018983457 -0.103146106 -0.027412118 0.11223775 0.039025024 -0.12632097 -0.099722676
0.012380944 -0.02473329 0.113717265 -0.036148284 0.010231284 -0.111251846 -0.11087962 -0.1235183
0.044495635 -0.034003682 0.054346457 0.07856126 0.12036604 -0.050745964 0.020509599 0.04475374
00000000: 9590 cbbc 6927 c13d 778a fc3d 55bd 6ebd
00000010: 2c66 c03d 1bb3 a4bb 47a9 6bbd 4a76 cd3d
00000020: 6e7e 1a3c 171e 933d 8bef 073e 2b23 d8bd
00000030: a690 97bd dc47 7e3c 90af ddbc cd23 dfbd
00000040: b71a 81bd cb22 58bd 60ea 3cbd 056a 12bd
00000050: 416d d63d 78f4 b23d 1fd3 6db9 e6a0 ce3d
00000060: 9895 10bd ef4c fd3d 22ed 9f3c e2e6 813d
00000070: f223 a5bc 41a4 f3bc 83da 37bd a540 953d
00000080: f215 abbd 0d03 c13c 7760 f63d b09b 8b3d
00000090: 1d42 893d ebaf 293c c2fd 6a3d fa78 bdbd
000000a0: 7cee 6cbd c461 c0bd 70ca ee3d 9ede 01bd
000000b0: 4848 e5bd 986e dcbd 88e0 403d e4ec dcbd
000000c0: e672 c43c 56df cc3d 40ec 123d b988 703c
000000d0: c125 333d 14ff 8d3d 5be3 223d da42 d7bd
000000e0: 3eaa 143d da20 f3ba 7bd6 f93d 2bfb a5bd
000000f0: 4822 45bd f2f6 d33b 60e3 56bd 1b30 9abc
00000100: bfc4 c0bd be78 823d 9aba e8bd 43f1 ae3d
00000110: 43a8 073e 5429 e63d 3903 af3d b1b2 0bbd
00000120: b5fe e73d 90cc dabd 33f0 a2bd c1ff c7bc
00000130: 51c7 073e 0025 00be 8e08 aabd 48d9 acbc
00000140: 216a 74bd fd02 74bd ab28 ab3d ec15 b73d
00000150: 22e9 90bd 5b14 f1bc 94f8 863d 2575 6e3d
00000160: 0598 9e3d 2e2d 68bd 52d7 f1bd 9ca9 0abb
00000170: c0ae e73d 882e 133d eace aebd 6459 963d
00000180: c9b6 b23d a322 8abd 7856 c7bd e5bc c5bc
00000190: 85fc 29bd 9e60 bfbd 4310 883d 336a 20bd
000001a0: b803 c3bd 3f41 c2bd ce91 313d e588 d9bd
000001b0: 063e 92bd d14d afbd 7442 06bd b485 b0bd
000001c0: 6bc3 ea3d 5316 03bd d8c4 ae3d dbf8 7e3d
000001d0: 7f98 913c a9c5 063e 944b 053e 0415 c5bd
000001e0: 85af d1ba 89d9 87bd 2210 723d f819 143c
000001f0: a078 ccbd c3c9 073d 2413 ad3b 5d38 1ebd
00000200: fc10 d83d b5e1 943c a7a8 f83d b05b 8abd
00000210: 2fe3 c0bc 27ef 983d 5f11 ee3c c927 cf3d
00000220: 1702 ff3d 6b5a 03be af09 fb3c 7f64 d43d
00000230: f5ec a43d b82d 55bd 1823 053d 1ec0 623c
00000240: 313c 023d 67eb d43d bb1d 0f3d 2a0b 7c3d
00000250: 0ffd 853c cd5d 58bd 6e75 b43c b27e 8f3c
00000260: a150 f4bd 3bec 9a3d 2890 55bd 1060 da3d
00000270: 31ed 1ebd 3873 063e 7201 d2bc 0379 a1bd
00000280: 4a23 05bc 4eb3 c73d 09e9 5d3d 4246 e83d
00000290: 5229 13bc 8c22 8b3c c9c4 083d 5622 a33d
000002a0: 1ee5 f13d cc18 04bc 68db 60bd 7fd3 b73d
000002b0: cadb 313d 834e 94bd 46e6 bc3d 6d28 b13d
000002c0: 740a 78bc fc26 1e3b 50da d03c d38e acbc
000002d0: ca0d a53d ca66 ec3d f865 aebd f4cd 053d
000002e0: fcbe aabd 2cc9 c9bd a5d7 5fbd f680 c23b
000002f0: 75b3 ac3d f881 bcbd 74e2 93bd fedc 1c3d
00000300: 0578 f73d 5169 01bd 8b8d cf3d 7786 c73d
00000310: e607 cebd 401b 9a3c fd39 f3bc 85cd 573d
00000320: 3c08 243d 2b98 60bd 8e38 053e 924f 50bd
00000330: f2a4 97bc ef2a e1bd 76b1 b5bd d743 b63d
00000340: f9fe c93d ba89 da3d 938e 40bc 9a73 9dbd
00000350: e992 e5bd 5d41 c3bd a19f 993b 5ba8 3bbd
00000360: 667c 49bd 381f 943a cc56 02bb 7f1a 0c3e
00000370: 78fd d0bc 62a1 b93d d342 c33c 6499 dabc
00000380: 3302 963a 49cc 333d 963b 74bd 00a5 833d
00000390: 5972 b1bd 43c8 bd3d 2295 e63d 83b3 a13d
000003a0: f0c6 98bd 3283 9bbc 443e d3bd 618f e0bc
000003b0: e8dc e53d b4d8 1f3d 495a 01be 673b ccbd
000003c0: 71d9 4a3c 789d cabc 99e4 e83d 3910 14bd
000003d0: 1ea1 273c 02d8 e3bd db14 e3bd 2af7 fcbd
000003e0: 0e41 363d 7247 0bbd 649a 5e3d bae4 a03d
000003f0: 7882 f63d 00db 4fbd bf03 a83c b34f 373d

weight_ih_l1 f4 [256, 64]
0.10938915 0.11647165 -0.033953063 0.11421542 0.049416047 -0.038874045 0.011390647 -0.021006476
0.068799786 0.092514694 0.021159038 0.09135294 0.039034538 0.11304868 0.01685598 0.06302541
0.044109352 -0.06958616 -0.043262664 -0.07218994 0.03451005 0.10824939 0.100846246 -0.08348146
-0.010702168 0.084980085 -0.084747665 -0.051164057 0.1054463 -0.030623076 -0.12950312 0.021018758
-0.052022934 -0.034900907 0.06976643 -0.10266344 0.089948595 0.0495636 -0.12616192 0.07780357
-0.015421726 -0.10418039 -0.04791235 0.00017723335 0.11949226 0.11339171 -0.10433976 -0.016222496
-0.039271556 0.009131975 0.016361298 -0.10965075 0.078088574 0.057641264 0.05216621 0.037530303
0.069952175 0.079346575 0.022592872 -0.0488812 0.07292152 -0.042043358 -0.09629608 0.08735274
0.121066086 0.06656539 -0.01737069 -0.030092908 -0.12594028 -0.027979061 -0.07593471 -0.07969377
-0.005878784 -0.11100524 -0.041008 -0.042219236 -0.04452375 -0.0835155 0.032175582 0.10310826
-0.045442343 0.13672572 -0.01704123 -0.10453735 -0.12237668 0.024398573 0.07149879 -0.13626315
0.011642752 0.12856837 -0.032093547 -0.09195263 0.077102855 0.00053876033 -0.07385745 -0.070286006
-0.042332027 0.06124484 -0.020278089 -0.02116886 0.06315246 -0.13139375 -0.02041458 0.01176603
-0.0005622997 -0.0074292244 -0.048088852 -0.08106303 0.09207408 -0.05467628 -0.0059925662 0.052792527
-0.019747099 -0.009943587 0.049558934 0.08744887 0.08124307 0.07613252 0.10562591 -0.09539003
0.09327793 -0.018991126 0.11939582 0.034102246 0.12260352 -0.022716746 -0.089183986 0.004246222
-0.09425235 0.10805483 0.118116304 -0.10408777 0.020428302 0.0046465523 0.032735806 0.09254431
0.0880148 -0.07049981 -0.09641124 -0.04390764 0.03296758 -0.106518686 0.0114579545 -0.10390142
-0.11844109 -0.005961035 0.004858483 0.03655441 -0.022088721 -0.03234459 -0.11457048 0.03214854
0.07295157 0.07280872 0.07402271 -0.0026903474 -0.10784517 0.0055449684 0.10211634 0.07771294
-0.10580476 -0.00060163444 0.030512458 0.04057588 -0.092727125 0.038595643 -0.085622944 -0.10033992
-0.076357014 0.1128565 0.12595475 -0.05385521 0.03819067 0.044423655 -0.0996126 0.10371875
0.053854484 -0.048068456 -0.12412133 0.08388434 0.055985738 0.060015157 -0.009288291 -0.0010477855
-0.002949587 -0.0019146921 -0.111274555 -0.07830346 -0.11022969 -0.05109404 -0.030008797 0.0039230026
-0.02542403 -0.06393148 -0.051649354 -0.032076746 0.05817029 0.13110629 -0.0015194971 -0.0803673
0.0059170187 0.030998953 0.041858237 0.08652736 0.08395926 -0.11730127 0.018581845 0.03666094
-0.038270317 0.0052170735 0.13189545 0.066424735 -0.03678223 -0.11109639 -0.032191783 0.05505804
-0.06681383 0.01438733 0.044078123 0.052837007 0.024738738 -0.02865167 0.033682976 0.02609623
-0.09524462 0.05976408 0.024766555 -0.10991193 -0.08814584 0.02387396 0.09057747 0.083912015
-0.09953946 -0.012038944 0.060680702 -0.006456355 -0.08383076 0.015509994 -0.013238974 0.10889653
-0.13115406 -0.013844537 0.111807644 -0.114181384 0.031142985 0.020410437 0.037436742 -0.09778534
-0.02590168 0.06317918 -0.003158783 0.036572713 0.104464926 0.057316475 -0.13314562 -0.03438534
00000000: 6b07 e03d b088 ee3d 5e12 0bbd c6e9 e93d
00000010: 7b68 4a3d 643a 1fbd d69f 3a3c c615 acbc
00000020: e7e6 8c3d 5878 bd3d b855 ad3c 4017 bb3d
00000030: aee2 1f3d 1186 e73d 8d15 8a3c 7713 813d
00000040: 02ac 343d 3083 8ebd 3134 31bd 52d8 93bd
00000050: 695a 0d3d dbb1 dd3d 7a88 ce3d 54f8 aabd
00000060: 2558 2fbc 0a0a ae3d 2f90 adbd 6791 51bd
00000070: 3bf4 d73d 3fdd fabc 779c 04be 882f ac3c
00000080: 0016 55bd 41f4 0ebd b4e1 8e3d 3641 d2bd
00000090: f836 b83d 3403 4b3d 9730 01be 7a57 9f3d
000000a0: 68ab 7cbc 875c d5bd be3f 44bd b7d7 3939
000000b0: 5cb8 f43d ea39 e83d 16b0 d5bd 0ae5 84bc
000000c0: 36db 20bd 479e 153c 2108 863c 9390 e0bd
000000d0: e7ec 9f3d 3f19 6c3d 3cac 553d 60b9 193d
000000e0: 1643 8f3d 7580 a23d b014 b93c a737 48bd
000000f0: e157 953d a835 2cbd e136 c5bd fee5 b23d
00000100: 7ff1 f73d 6f53 883d fa4c 8ebc 6785 f6bc
00000110: 7df6 00be 5834 e5bc a883 9bbd 7d36 a3bd
00000120: d1a2 c0bb b756 e3bd 01f8 27bd 14ee 2cbd
00000130: 895e 36bd 2d0a abbd 8bca 033d 6c2a d33d
00000140: c021 3abd d401 0c3e 0d9a 8bbc ae17 d6bd
00000150: a0a0 fabd 84df c73c f56d 923d 9188 0bbe
00000160: 3ec1 3e3c 6da7 033e 8674 03bd a951 bcbd
00000170: 1ae8 9d3d 983b 0d3a 9342 97bd 1cf2 8fbd
00000180: 5964 2dbd dfdb 7a3d 3c1e a6bc 516a adbc
00000190: 1456 813d 158c 06be 7a3c a7bc 4fc6 403c
000001a0: 4b67 13ba da70 f3bb d1f8 44bd 6004 a6bd
000001b0: 5691 bc3d 3cf4 5fbd 4a5d c4bb fa3c 583d
000001c0: abc4 a1bc 6dea 22bc 4ffe 4a3d 6518 b33d
000001d0: c462 a63d 5eeb 9b3d 6652 d83d d95b c3bd
000001e0: 8008 bf3d 4793 9bbc cc85 f43d ccae 0b3d
000001f0: 8e17 fb3d 7818 babc 18a6 b6bd e423 8b3b
00000200: 6007 c1bd da4b dd3d f6e6 f13d f82b d5bd
00000210: 4159 a73c 1b42 983b fb15 063d df87 bd3d
00000220: 1a41 b43d 3462 90bd 4273 c5bd 7fd8 33bd
00000230: 0309 073d 7826 dabd 25ba 3b3c 45ca d4bd
00000240: 3e91 f2bd c954 c3bb e933 9f3b 14ba 153d
00000250: 68f3 b4bc c37b 04bd eea3 eabd 30ae 033d
00000260: a267 953d bd1c 953d 3899 973d 8a50 30bb
00000270: eedd dcbd 91b2 b53b 5f22 d13d f627 9f3d
00000280: 2ab0 d8bd 01b7 1dba 43f5 f93c e532 263d
00000290: b8e7 bdbd 7716 1e3d 155b afbd 047f cdbd
000002a0: 1161 9cbd 4f21 e73d 48fa 003e 4897 5cbd
000002b0: d26d 1c3d 94f5 353d b101 ccbd 7f6a d43d
000002c0: 8596 5c3d 6ee3 44bd 5333 febd 8ecb ab3d
000002d0: 4d51 653d 74d2 753d eb2d 18bc d955 89ba
000002e0: dc4d 41bb 68f6 faba eae3 e3bd 905d a0bd
000002f0: 1bc0 e1bd fc47 51bd 02d5 f5bc 888c 803b
00000300: 0e46 d0bc 82ee 82bd 468e 53bd e862 03bd
00000310: f843 6e3d ba40 063e dd29 c7ba 9c97 a4bd
00000320: 8de3 c13b 84f1 fd3c 8b73 2b3d 4235 b13d
00000330: d5f2 ab3d a63b f0bd f438 983c c829 163d
00000340: 56c1 1cbd fcf3 aa3b 9a0f 073e b109 883d
00000350: f7a8 16bd 8186 e3bd 88db 03bd 8a84 613d
00000360: b0d5 88bd d6b8 6b3c 438b 343d 9e6b 583d
00000370: e5a8 ca3c e8b6 eabc 29f7 093d c3c7 d53c
00000380: 9d0f c3bd 2ecb 743d 3be3 ca3c 8219 e1bd
00000390: ce85 b4bd 5393 c33c ae80 b93d 10da ab3d
000003a0: 58db cbbd fe3e 45bc 548c 783d d58f d3bb
000003b0: 76af abbd a11d 7e3c 48e8 58bc 2505 df3d
000003c0: 404d 06be 32d4 62bc 68fb e43d eed7 e9bd
000003d0: 931f ff3c ca33 a73c 4557 193d ae43 c8bd
000003e0: c32f d4bc 1664 813d 9603 4fbb 45cd 153d
000003f0: b5f1 d53d aec4 6a3d 5357 08be a4d7 0cbd

weight_hh_l1 f4 [256, 64]
-0.12835543 -0.012354665 0.048297774 0.0269056 -0.03218547 0.025287816 0.041241188 -0.10450662
0.02958369 -0.06286972 -0.04068488 -0.08492776 -0.08868278 0.09812121 0.10260458 -0.11639258
0.02293528 0.13131143 -0.09709178 0.1050011 0.09156423 -0.08322984 -0.019326873 0.03148615
0.09457341 -0.041904557 -0.067559145 -0.012885014 -0.051896144 -0.009251762 0.083965704 0.1056564
-0.056452993 0.09033802 -0.106256485 -0.109651566 0.01965082 -0.025159087 -0.11400117 0.015141325
-0.050036807 0.045192666 0.030907575 -0.075157635 -0.10912163 -0.080479376 -0.024256766 -0.07864516
0.07563816 -0.042247653 0.07223589 -0.049794365 -0.0054730778 0.052581243 0.07998647 -0.09428556
-0.05226626 -0.100915805 -0.059311256 -0.0028280227 0.10411627 -0.10631248 0.10608323 -0.043712817
-0.01884044 -0.10858257 0.00487559 0.04472104 -0.027398966 0.077645496 -0.05499624 -0.06331829
0.012124021 0.07062964 -0.028044572 -0.011561976 0.110574014 -0.0021419758 -0.050430696 0.06365634
-0.1219499 -0.0756105 -0.09899105 -0.116504125 0.110396914 -0.09450159 0.040694892 -0.10181073
0.038000893 0.045436814 0.114427 0.13469887 -0.005102089 -0.02986748 0.08027269 -0.034627873
-0.06397684 -0.08831068 -0.059142835 0.10324551 0.05033038 -0.055116665 0.02713961 -0.053653922
0.08408676 0.071923025 -0.05272124 -0.080904566 -0.069059104 -0.04595398 0.059289906 0.048524797
0.014349857 -0.10887402 -0.0013239596 0.030120756 0.10315017 0.08010552 -0.08571448 -0.09760264
0.012704703 -0.016505204 -0.12805046 -0.033429835 -0.12594052 -0.02816939 0.049874563 0.10460695
-0.09489245 -0.07745693 -0.03573987 -0.10617224 0.09710487 0.08716445 0.08490697 0.021668708
0.020747442 -0.08180504 -0.07293445 -0.008630824 -0.048104804 0.015656427 -0.03503074 -0.08823186
0.0318329 -0.038348585 -0.029759692 -0.067254655 0.045553934 -0.07067335 -0.06809501 -0.11180106
0.037927333 -0.029020973 0.12908335 -0.10473921 -0.029051123 0.057876427 -0.08347823 -0.0632475
0.03296841 -0.11785787 -0.022087634 -0.04014792 -0.0041705626 0.00524446 0.0021991893 0.103681594
-0.0025160294 0.08373808 -0.07323725 0.046179596 -0.02130414 -0.12818219 -0.04832382 0.05926498
-0.094941296 0.030504113 0.0035749257 0.023066757 -0.10782437 -0.013481022 -0.027754173 0.07958889
0.017298894 0.026021576 -0.08341544 -0.09905954 -0.036690958 0.06982562 -0.08320992 -0.048161138
-0.02443659 0.079770856 -0.11929998 0.058856323 0.0854586 -0.06565783 0.03443374 0.008068133
-0.07761098 0.03300777 0.061195046 -0.033074565 0.08563507 -0.13315384 -0.084890425 -0.04675217
0.0034142525 0.016141143 0.1098314 0.058618642 0.07027028 -0.04256753 -0.0024009643 0.094708644
0.09890687 -0.098650515 0.045474466 -0.047789246 0.0639534 0.08643959 0.056040265 0.061513778
0.003858806 0.07799872 0.04807786 0.10340827 -0.04665088 -0.091342166 0.110572055 -0.089103684
-0.118761 0.059153598 -0.09599808 0.04023966 -0.083757125 -0.07099407 0.05040963 0.07587863
0.035157077 0.13326791 -0.08261371 0.027603783 -0.0053639594 -0.08367323 0.042391844 -0.006327156
-0.101071574 -0.09449966 0.025010612 0.069134094 -0.10929734 0.10842335 -0.06973461 0.018338999
00000000: 9b6f 03be 396b 4abc e3d3 453d 2269 dc3c
00000010: e9d4 03bd 6528 cf3c 85ec 283d 9107 d6bd
00000020: 7f59 f23c d7c1 80bd 30a5 26bd 9bee adbd
00000030: 519f b5bd c6f3 c83d 5a22 d23d 3c5f eebd
00000040: c5e2 bb3c 8176 063e 0ed8 c6bd d10a d73d
00000050: 0786 bb3d 6874 aabd 6453 9ebc 9ff7 003d
00000060: b4af c13d 1da4 2bbd 735c 8abd aa1b 53bc
00000070: 0d91 54bd b494 17bc 36f6 ab3d 6262 d83d
00000080: 413b 67bd 2403 b93d 009d d9bd 0091 e0bd
00000090: c2fa a03c 6e1a cebc 7279 e9bd 5213 783c
000000a0: 65f3 4cbd f21b 393d e231 fd3c 3fec 99bd
000000b0: 297b dfbd 5fd2 a4bd 20b6 c6bc b710 a1bd
000000c0: 2ee8 9a3d e00b 2dbd 69f0 933d 2df5 4bbd
000000d0: 8157 b3bb 6e5f 573d f2cf a33d ca18 c1bd
000000e0: 2515 56bd f2ac cebd 5cf0 72bd 5956 39bb
000000f0: e93a d53d 5cba d9bd 2a42 d93d 360c 33bd
00000100: 4457 9abc 8a60 debd 6ac3 9f3b 692d 373d
00000110: cc73 e0bc 9a04 9f3d bd43 61bd 05ad 81bd
00000120: d4a3 463c 46a6 903d bbbd e5bc 716e 3dbc
00000130: a174 e23d 6460 0cbb 6b90 4ebd 415e 823d
00000140: dfc0 f9bd aed9 9abd d2bb cabd b799 eebd
00000150: c717 e23d 0d8a c1bd b0af 263d 2582 d0bd
00000160: d3a6 1b3d f41b 3a3d b458 ea3d 80ee 093e
00000170: 6d2f a7bb a5ac f4bc 0266 a43d f5d5 0dbd
00000180: 4a06 83bd 3bdc b4bd c23f 72bd 6272 d33d
00000190: 3b27 4e3d 03c2 61bd e353 de3c 37c4 5bbd
000001a0: ae35 ac3d 614c 933d 3af2 57bd 4bb1 a5bd
000001b0: dc6e 8dbd 3e3a 3cbd f9d9 723d f0c1 463d
000001c0: aa1b 6b3c 58f9 debd b688 adba cebf f63c
000001d0: 6540 d33d 5d0e a43d 138b afbd e5e3 c7bd
000001e0: 6327 503c ec35 87bc a91f 03be b9ed 08bd
000001f0: 8df6 00be 7ec3 e6bc 4549 4c3d 2b3c d63d
00000200: f956 c2bd bda1 9ebd f863 12bd d570 d9bd
00000210: ebde c63d 4683 b23d b5e3 ad3d 9382 b13c
00000220: 8af6 a93c 6789 a7bd a85e 95bd 4d68 0dbc
00000230: 8b09 45bd e841 803c 657c 0fbd e8b2 b4bd
00000240: 3763 023d 6813 1dbd 99ca f3bc cfbc 89bd
00000250: c396 3a3d 30bd 90bd 6675 8bbd f4f7 e4bd
00000260: b159 1b3d 64bd edbc 6d2e 043e 8381 d6bd
00000270: 9ffc edbc d50f 6d3d a2f6 aabd e887 81bd
00000280: e209 073d 785f f1bd 20f1 b4bc 2572 24bd
00000290: 37a9 88bb b8d9 ab3b 4620 103b 0457 d43d
000002a0: f8e3 24bb df7e ab3d 69fd 95bd d126 3d3d
000002b0: 0586 aebc 3142 03be 33ef 45bd d6bf 723d
000002c0: 9570 c2bd c3e3 f93c 4d49 6a3b 7ff6 bc3c
000002d0: 06d3 dcbd 81df 5cbc b85c e3bc 80ff a23d
000002e0: 69b6 8d3c 332b d53c b7d5 aabd badf cabd
000002f0: 4249 16bd bc00 8f3d f669 aabd 9d44 45bd
00000300: 3e2f c8bc e75e a33d 8c53 f4bd 5413 713d
00000310: eb04 af3d 9d77 86bd 650a 0d3d 3430 043c
00000320: 81f2 9ebd 2833 073d a8a7 7a3d 3279 07bd
00000330: 7161 af3d 7b59 08be 08db adbd 347f 3fbd
00000340: a7c1 5f3b 6e3a 843c 49ef e03d 1a1a 703d
00000350: dde9 8f3d 4a5b 2ebd 7f59 1dbb 9bf6 c13d
00000360: af8f ca3d 4809 cabd 6f43 3a3d a8be 43bd
00000370: 00fa 823d 3d07 b13d 7a8a 653d dff5 7b3d
00000380: 06e4 7c3b cbbd 9f3d 4aed 443d b7c7 d33d
00000390: fe14 3fbd 9a11 bbbd 9a73 e23d fe7b b6bd
000003a0: f838 f3bd 0b4b 723d a49a c4bd 57d2 243d
000003b0: db88 abbd 5765 91bd 547a 4e3d 4166 9b3d
000003c0: de00 103d 6277 083e 6031 a9bd 5421 e23c
000003d0: 27c4 afbb df5c abbd 12a3 2d3d 0854 cfbb
000003e0: 9dfe cebd 0a89 c1bd 0ee3 cc3c 2d96 8d3d
000003f0: 49d7 dfbd 100d de3d 05d1 8ebd ab3b 963c

bias_ih_l1 f4 [256]
0.04340488 0.12878883 0.05220454 0.059493516 0.055887733 0.021470483 0.0595929 -0.019797567
-0.058511868 -0.050607357 0.1153275 -0.07124843 0.09858493 0.116441116 0.06787252 -0.021426745
0.07252593 -0.07428785 0.08733976 0.12854026 -0.078527644 0.0363603 0.03297238 0.02786406
0.032820705 0.13409154 -0.060562152 0.12837982 -0.007274627 -0.020376513 -0.058067814 0.113997646
0.05157896 0.045582004 0.00975093 0.008583253 0.09284246 -0.06478258 0.010965767 0.11839192
0.008004703 0.0023837555 -0.05195254 -0.043398988 0.069783784 -0.026425615 0.016696768 -0.11814862
0.056026474 -0.10346422 0.0943404 0.123380885 0.117315784 0.08704461 0.0017548884 0.12817442
0.11868471 -0.07192143 0.007877737 0.011460584 0.0033881636 0.09108568 -0.10763697 -0.07981768
0.015046698 -0.006816602 0.06999672 0.04375607 0.010556053 0.09133119 0.013230296 0.10155552
0.080707364 -0.024967201 -0.039217807 0.12029515 0.041068193 0.07541259 -0.09753575 0.0920229
-0.028106362 0.065382384 -0.0318039 -0.021111447 -0.013826607 -0.10135774 0.12704551 -0.08997419
-0.0051703225 -0.05954383 -0.050942145 0.011341389 -0.06854262 0.011805599 -0.017314324 0.06664945
0.12425019 -0.060706146 0.06491981 0.101307005 0.11314862 0.07427943 0.13015755 -0.020304197
-0.100403234 -0.08255135 0.029768132 0.00020029982 0.07933444 0.06466455 -0.095460445 0.089340106
0.013275885 0.06937671 -0.0012480154 -0.09398266 0.006143648 -0.059025206 -0.102561764 -0.044936426
-0.060266353 0.106014036 0.019403182 -0.09654498 -0.0034461366 0.099896215 -0.08328882 0.11898937
0.08593346 -0.028949974 -0.071584135 -0.042550813 0.0951058 0.034949355 -0.09042875 -0.095003024
-0.02821173 -0.06297444 -0.060127255 0.10434333 0.009996719 -0.032120254 -0.09848761 -0.11677797
-0.035077106 -0.0706806 -0.014293549 -0.10530223 0.024954746 -0.13560945 0.095440865 -0.11753285
0.02192208 -0.05212274 0.08120014 -0.005895145 0.03139851 -0.07677954 0.04216041 0.07709946
0.10503989 -0.11190629 0.13199304 0.13009666 -0.0022133547 -0.019758783 0.061190847 -0.01885248
-0.008857392 0.10662494 0.09827019 0.03253499 -0.01495891 0.01956877 0.022104647 -0.019939555
0.049521398 0.10586667 -0.039329585 -0.023866143 0.061576862 -0.094449766 0.06453315 -0.03126265
0.07558059 0.07108885 -0.10482968 0.10991945 -0.079846576 -0.045643568 0.05257624 -0.014324487
-0.07959575 0.036412682 0.116545275 0.002274886 0.014113367 -0.025927018 -0.087210625 0.10314466
-0.0017869375 0.028954674 0.13240592 0.0011042716 0.1116763 -0.0100572435 -0.038885336 -0.038724992
0.005043476 -0.044445306 0.089099504 -0.10335862 -0.07648305 -0.0049173054 -0.018000804 0.018471772
-0.087738015 0.045641642 0.08546016 0.015428439 -0.08282801 -0.10370493 0.06271129 0.007452061
-0.074335136 0.12387925 0.08230558 0.101462506 0.048558168 -0.051055253 0.070852175 0.06252936
0.05068648 -0.052792586 0.054062203 0.050531507 0.0067589083 0.13329218 -0.0467327 -0.004594159
0.109536186 -0.018544924 -0.087795414 0.0739841 -0.087520555 -0.023290308 0.050405864 -0.10510772
-0.007924919 0.04805182 -0.10345358 0.07531778 -0.07163386 -0.022000002 -0.06924048 0.08403493
00000000: 51c9 313d 38e1 033e 6ed4 553d 79af 733d
00000010: 89ea 643d dee2 af3c af17 743d 822e a2bc
00000020: 24aa 6fbd a949 4fbd d330 ec3d b2ea 91bd
00000030: e5e6 c93d ae78 ee3d bf00 8b3d 2487 afbc
00000040: 7a88 943d 3a24 98bd 30df b23d 0fa0 033e
00000050: 1ad3 a0bd 8aee 143d 0c0e 073d 2b43 e43c
00000060: 016f 063d 4b4f 093e 0510 78bd 0076 033e
00000070: ff5f eebb a5ec a6bc 84d8 6dbd 9977 e93d
00000080: 7644 533d 32b4 3a3d 5dc2 1f3c c6a0 0c3c
00000090: 3024 be3d bbac 84bd c3a9 333c 7777 f23d
000000a0: 2826 033c c838 1c3b 30cc 54bd 23c3 31bd
000000b0: cdea 8e3d 887a d8bc a9c7 883c e7f7 f1bd
000000c0: 047c 653d 0de5 d3bd 8a35 c13d 1eaf fc3d
000000d0: 4243 f03d 7244 b23d 4904 e63a 2840 033e
000000e0: f810 f33d 8b4b 93bd a011 013c 2cc5 3b3c
000000f0: f40b 5e3b 218b ba3d c670 dcbd 7477 a3bd
00000100: 6d86 763c cd5d dfbb 715a 8f3d 9139 333d
00000110: 4cf3 2c3c d90b bb3d e2c3 583c 57fc cf3d
00000120: e749 a53d 0488 ccbc daa2 20bd 4e5d f63d
00000130: 1f37 283d ea71 9a3d d3c0 c7bd 8176 bc3d
00000140: 503f e6bc 33e7 853d ce44 02bd eaf1 acbc
00000150: fe88 62bc a694 cfbd 3818 023e 6344 b8bd
00000160: cf6b a9bb 3be4 73bd b6a8 50bd 3cd1 393c
00000170: 1360 8cbd 456c 413c c5d6 8dbc 827f 883d
00000180: e276 fe3d 02a7 78bd adf4 843d 0c7a cf3d
00000190: 77ba e73d d01f 983d 0548 053e fd54 a6bc
000001a0: 36a0 cdbd af10 a9bd 4cdc f33c 9307 5239
000001b0: 187a a23d d96e 843d c480 c3bd f2f7 b63d
000001c0: 1983 593c 6015 8e3d 7394 a3ba fb79 c0bd
000001d0: a850 c93b 6ac4 71bd e70b d2bd 420f 38bd
000001e0: dad9 76bd e31d d93d 6cf3 9e3c 60b9 c5bd
000001f0: 94d8 61bb 6396 cc3d 5493 aabd b3b0 f33d
00000200: e2fd af3d 7f28 edbc b49a 92bd c349 2ebd
00000210: d4c6 c23d 0e27 0f3d b532 b9bd f290 c2bd
00000220: 491c e7bc bef8 80bd ff47 76bd f5b1 d53d
00000230: 47c9 233c 8790 03bd dfb3 c9bd 4a29 efbd
00000240: 03ad 0fbd fec0 90bd 7d2f 6abc b2a8 d7bd
00000250: e56d cc3c 34dd 0abe 8076 c33d 10b5 f0bd
00000260: ef95 b33c a77e 55bd 424c a63d 0f2c c1bb
00000270: b99b 003d 973e 9dbd 65b0 2c3d 52e6 9d3d
00000280: 271f d73d 202f e5bd 2f29 073e 0f38 053e
00000290: ee0d 11bb 2cdd a1bc 41a3 7a3d 8470 9abc
000002a0: 981e 11bc 2d5e da3d e241 c93d 6943 053d
000002b0: 3716 75bc af4e a03c ce14 b53c 4758 a3bc
000002c0: f3d6 4a3d a0d0 d83d 0f18 21bd ee82 c3bc
000002d0: 0538 7c3d e16e c1bd f529 843d 440d 00bd
000002e0: ffc9 9a3d 0897 913d f1b0 d6bd 731d e13d
000002f0: 9a86 a3bd c0f4 3abd 2f5a 573d 41b1 6abc
00000300: 1903 a3bd 7725 153d 4aaf ee3d 4116 153b
00000310: c03b 673c e664 d4bc 7c9b b2bd 823d d33d
00000320: ac37 eaba 5a32 ed3c 6b95 073e 35bd 903a
00000330: 8bb6 e43d 23c7 24bc 3b46 1fbd 199e 1ebd
00000340: be43 a53b 480c 36bd cd79 b63d afad d3bd
00000350: 25a3 9cbd 5921 a1bb 6c76 93bc 1d52 973c
00000360: fdaf b3bd bbf2 3a3d bd05 af3d 90c7 7c3c
00000370: bba1 a9bd 4063 d4bd c76e 803d 6b30 f43b
00000380: 053d 98bd 67b4 fd3d d48f a83d 93cb cf3d
00000390: eee4 463d 501f 51bd f21a 913d 650f 803d
000003a0: a09c 4f3d 0a3d 58bd 5470 5d3d 20fa 4e3d
000003b0: d579 dd3b bf7d 083e ca6a 3fbd 998a 96bb
000003c0: 8254 e03d 86eb 97bc 15ce b3bd fa84 973d
000003d0: fa3d b3bd 51cb bebc 6176 4e3d b742 d7bd
000003e0: 85d7 01bc fcd1 443d 78df d3bd 3540 9a3d
000003f0: c6b4 92bd 5939 b4bc f4cd 8dbd 811a ac3d
