surrogate/ridge_second_surr.pt (torch, 3983 bytes, 1 tensors)

weight f4 [1, 512]
0.0039730156 0.004016096 0.009358437 0.06939166 0.023137208 0.06988022 0.038105506 0.07440865
0.0063489424 0.05970324 0.059764054 0.058266424 0.06757817 0.029207878 0.045395285 0.07445716
0.061527725 0.008578709 0.03846548 0.06491526 0.0145908035 0.017091626 0.00783024 0.000783395
0.032739647 0.052748818 0.01053746 0.010665928 -0.0015001077 0.03601436 0.052398305 0.0072710887
0.04069559 0.061700407 0.005106129 0.016844718 0.035197083 0.020837134 0.018338138 0.0041212793
0.06821163 0.067512035 0.05765139 0.022539692 0.04012439 0.055902235 0.029554429 0.054099284
0.018507954 0.011712313 0.028176807 0.042442214 0.04103396 0.012160254 0.075860776 0.00926061
0.07496304 0.019333886 0.04298557 0.003165296 0.06082164 0.06482375 0.017068027 0.04728989
0.047207136 0.011062155 0.039942436 0.069143474 0.0028513742 0.0020773676 0.025353026 0.026977492
0.023441253 0.020593677 0.07525724 0.05027005 0.03858045 0.042639118 0.01589502 0.04134367
0.049165037 0.009727117 0.052651025 0.061663605 0.061779052 0.028911 0.07121334 0.018030725
0.07424582 0.05696523 0.024521591 0.021269782 0.07353165 0.071898304 0.029651573 0.029473992
0.008276447 0.075417496 0.030619297 0.03802385 0.0144972885 0.06297664 0.055689182 -0.0001156595
0.03982583 0.030216685 0.01214212 0.056657247 0.06504883 0.008048745 0.0028728205 -0.0012868325
0.029029857 0.03669472 0.030407695 0.025700938 0.06367075 0.03081256 0.002207537 0.055869225
0.071968146 0.06450826 0.031488754 0.07623615 0.033430826 0.01803315 0.01674229 0.023928624
0.056059197 0.044931788 0.03354022 0.012804898 0.05746129 0.038612172 0.0047166334 0.013766653
0.053045288 0.022321692 0.021724753 0.002704239 0.003567317 0.029338872 0.065701745 0.0659402
0.0072104074 0.055608746 0.07081267 0.04389425 0.015153101 0.0083147 0.0024722472 0.021450682
0.010598047 0.038696907 0.041274153 0.015860323 0.055916954 0.06490258 0.06734843 0.060094465
0.009701117 0.009376884 0.002169391 0.042429782 0.021924658 0.039412137 -0.0012234986 0.028025908
0.014277633 0.05798965 0.025335558 0.023617275 0.076130725 0.0189451 0.037975106 0.022905387
0.013728376 0.019356309 0.04572266 0.008648757 0.033562496 0.006632075 0.03327746 0.037454765
0.0050825076 0.019730872 0.06124208 0.029543996 0.014717557 0.044732243 0.041343536 0.0355908
0.04595842 0.01796593 0.06752612 0.074189484 0.057710446 0.035723593 0.016906135 0.03991529
0.0279977 0.017393757 0.04356372 0.049414758 0.0064608394 0.002206305 0.04756804 0.03317699
0.01639709 -0.00033798945 0.055119973 0.048858903 0.023270644 0.038018953 0.024656504 0.033369407
0.057121687 0.06147237 0.04969464 0.050830986 0.005096376 0.050663725 0.03939908 0.050622914
-0.00036871864 0.041375436 0.029244278 0.030189618 0.06839303 0.045723222 0.009835376 0.042488962
0.041287564 0.059137568 0.05286043 0.0077660913 0.031163402 0.01983214 0.06116196 0.05730515
0.037888583 0.036556456 0.020150086 0.02070822 0.0064812605 0.034664422 0.07603799 0.067739956
0.03983555 0.012107871 0.014824981 0.04479651 0.030722292 0.04037388 0.01200641 0.030230576
00000000: 1230 823b 7499 833b 2154 193c 371d 8e3d
00000010: 3e8a bd3c 5c1d 8f3d 8514 1c3d 9063 983d
00000020: ca0a d03b 628b 743d 27cb 743d c6a8 6e3d
00000030: 6c66 8a3d 5c45 ef3c 68f0 393d ff7c 983d
00000040: 7f04 7c3d b78d 0c3c fb8d 1d3d 4bf2 843d
00000050: 440e 6f3c bd03 8c3c 684a 003c c05c 4d3a
00000060: 021a 063d 250f 583d 50a5 2c3c 25c0 2e3c
00000070: 439f c4ba cb83 133d 9b9f 563d 5042 ee3b
00000080: 6bb0 263d 91b9 7c3d 5151 a73b effd 893c
00000090: d12a 103d a3b2 aa3c dd39 963c cc0b 873b
000000a0: 8ab2 8b3d c043 8a3d dd23 6c3d 29a5 b83c
000000b0: 7959 243d bef9 643d 211c f23c 3697 5d3d
000000c0: fe9d 973c 00e5 3f3c 0cd3 e63c e3d7 2d3d
000000d0: 3a13 283d cd3b 473c e55c 9b3d d0b9 173c
000000e0: 3986 993d 1962 9e3c a311 303d db70 4f3b
000000f0: 1d20 793d 50c2 843d 3fd2 8b3c 0bb3 413d
00000100: 455c 413d 0a3e 353c ae9a 233d 189b 8d3d
00000110: 1fde 3a3b 7224 083b 26b1 cf3c e7ff dc3c
00000120: df07 c03c 12b4 a83c 7820 9a3d f8e7 4d3d
00000130: 8906 1e3d 5ba6 2e3d 4636 823c fb57 293d
00000140: 4761 493d 7c5e 1f3c 9aa8 573d fa92 7c3d
00000150: 080c 7d3d c3d6 ec3c 4dd8 913d 2cb5 933c
00000160: 310e 983d 5f54 693d 81e1 c83c f73d ae3c
00000170: c397 963d 6b3f 933d dbe7 f23c 7173 f13c
00000180: ef99 073c 7d74 9a3d 52d5 fa3c e6be 1b3d
00000190: 0986 6d3c e6f9 803d 571a 643d 398e f2b8
000001a0: 6920 233d fb88 f73c beef 463c 6e11 683d
000001b0: 5238 853d e2de 033c ee45 3c3b efaa a8ba
000001c0: 06d0 ed3c 344d 163d 8f19 f93c c68a d23c
000001d0: cf65 823d 9f6a fc3c 53ac 103b 21d7 643d
000001e0: 0964 933d e81c 843d 5afa 003d b321 9c3d
000001f0: c3ee 083d 42ba 933c 2127 893c f605 c43c
00000200: 549e 653d 650a 383d 7861 093d a3cb 513c
00000210: 885c 6b3d cc27 1e3d fd8d 9a3b 878d 613c
00000220: 0446 593d fbdb b63c 1cf8 b13c 9a39 313b
00000230: a6c9 693b 1358 f03c a38e 863d a80b 873d
00000240: 4845 ec3b ffc5 633d 3c06 913d 75ca 333d
00000250: b644 783c 613a 083c 6d05 223b 57b9 af3c
00000260: 6ea3 2d3c a680 1e3d 160f 293d 82ed 813c
00000270: 2d09 653d a5eb 843d f9ed 893d 9d25 763d
00000280: 6ff1 1e3c 81a1 193c 572c 0e3b daca 2d3d
00000290: 579b b33c 9f6e 213d cd5d a0ba 9796 e53c
000002a0: bcec 693c 8e86 6d3d 848c cf3c 0479 c13c
000002b0: 6dea 9b3d c132 9b3c c98b 1b3d 14a4 bb3c
000002c0: fbec 603c 1f91 9e3c af47 3b3d 84b3 0d3c
000002d0: d478 093d e151 d93b f24d 083d 2b6a 193d
000002e0: 2a8b a63b a3a2 a13c fad8 7a3d 4006 f23c
000002f0: e821 713c 2839 373d d757 293d a9c7 113d
00000300: e53e 3c3d 492d 933c 224b 8a3d a8f0 973d
00000310: ca61 6c3d e752 123d bc7e 8a3c 377e 233d
00000320: 6f5b e53c 5a7d 8e3c df6f 323d 2167 4a3d
00000330: 73b5 d33b a897 103b b5d6 423d 98e4 073d
00000340: 3153 863c 2d34 b1b9 7bc5 613d 4620 483d
00000350: 14a2 be3c c3b9 1b3d 70fc c93c 5cae 083d
00000360: 6ef8 693d 74ca 7b3d 9b8c 4b3d 2734 503d
00000370: 80ff a63b c484 4f3d ee60 213d f959 4f3d
00000380: 9450 c1b9 4a79 293d b291 ef3c 3850 f73c
00000390: a511 8c3d 4648 3b3d 8f24 213c e808 2e3d
000003a0: 261d 293d 3c3a 723d 2e84 583d b27a fe3b
000003b0: 644a ff3c 0377 a23c f784 7a3d ceb8 6a3d
000003c0: 0f31 1b3d 39bc 153d cb11 a53c 49a4 a93c
000003d0: c160 d43b 48fc 0d3d ceb9 9b3d 3fbb 8a3d
000003e0: 9a2a 233d 1760 463c 7ae4 723c 8c7c 373d
000003f0: 51ad fb3c 155f 253d 89b6 443c 1da6 f73c
