surrogate/ridge_second_surr_logprobs.pt (torch, 14899 bytes, 1 tensors)

weight f4 [1, 3216]
000000 83 f2 e7 3a fe 79 2b 3c c5 1e e1 3c bb 47 79 3b
       0.0017696175 0.010466097 0.027480492 0.003803714
000010 33 fc d0 3b af 46 bc 3c f2 da a5 ba 90 8b 1e 3c
       0.0063777207 0.022982923 -0.0012653752 0.009676829
000020 d5 88 9a 3c 7e ac a8 3b 03 3a 04 3c 6a 84 e3 3c
       0.018864075 0.005147516 0.008070472 0.0277731
000030 80 48 fa 3a ec 49 d5 3c ed bc 95 3c 60 bb dc 3c
       0.0019095093 0.026036225 0.018278563 0.026944816
000040 6f e4 8e 3b 1e 76 50 3a c9 8f 20 3c 1d 35 6e 3a
       0.0043607275 0.0007952171 0.009799906 0.0009086894
000050 75 fc a3 3c 33 59 95 3b b2 01 c9 3c 73 cc 5b 3c
       0.020017842 0.0045577525 0.024536941 0.013415444
000060 9b 97 90 3c 65 98 c7 3b 42 9e d7 3c 52 ec 4f 3b
       0.017650416 0.006091165 0.02632058 0.0031726551
000070 0e 81 64 3b 5d 95 da 3c 5e 40 e3 3c 69 b0 6d 3b
       0.0034866962 0.02668255 0.027740654 0.0036268479
000080 df 9c a7 3c 53 b3 10 3c 16 9d 08 3c 65 0a 21 3c
       0.020460544 0.008831817 0.008338233 0.009829138
000090 f6 eb 81 3c d2 38 cb 3c 76 e5 43 3c 40 08 85 3c
       0.015859585 0.024807367 0.011956563 0.016239285
0000a0 3b b0 c7 3c 16 6b 3c 3b b6 08 bb 3b ba d4 93 3c
       0.024376025 0.0028750352 0.0057078255 0.018045772
0000b0 23 39 40 3c 93 6f b7 3c 25 45 b1 3c c2 a1 6a 3b
       0.011732372 0.02239207 0.021639416 0.0035801982
0000c0 89 1d cf 3a d9 1f 2f 3c 62 24 7f 3c 0c 69 d6 3b
       0.0015801649 0.010688745 0.015572639 0.0065432843
0000d0 5c 0c 83 3c 97 e6 cd 3c 9b 07 29 3b c6 fb be 3c
       0.015997104 0.025134368 0.0025791887 0.023313414
0000e0 05 13 92 3c 70 b6 d0 3c 5c 20 69 3c 31 b5 24 3c
       0.017831335 0.025477618 0.0142289065 0.010052965
0000f0 1b 99 cd 3b dc 3f 2e 3c 50 1f 1e 3b 16 54 55 3c
       0.006274355 0.010635342 0.002412755 0.013020536
000100 7d 44 b9 3c 98 55 31 3c e4 8f ac 3c 36 43 3e 3c
       0.022615666 0.01082363 0.021064706 0.011612704
000110 14 35 83 3c 62 eb 10 3b 37 39 71 3c 5c 17 31 3c
       0.01601652 0.0022112955 0.014723114 0.010808792
000120 b3 88 3b 3b 1c 73 c3 3c 13 59 de 38 a8 13 e1 3b
       0.0028615415 0.0238586 0.00010602376 0.0068687983
000130 2f da ad 3c 3e 97 a5 3c 00 dd a0 3c 5a 34 d5 3c
       0.021222202 0.02021372 0.019636631 0.02602594
000140 5f 9b 15 3c 74 57 e6 3b 7b 5c 7c 3c 46 08 7c 3c
       0.009131282 0.007029468 0.015402908 0.015382832
000150 b7 44 4c 3b 25 9b 0d 3c 56 27 a8 3c 9f 80 d8 ba
       0.0031168887 0.008642946 0.02052657 -0.0016517824
000160 2a 4b 62 3c a6 71 a6 3c ec c3 06 3b 2f a1 b1 3b
       0.013811866 0.020317864 0.0020563556 0.005420826
000170 45 8e d8 3c 3e db 17 3c 9d 38 82 3c 5e f5 33 3c
       0.026435027 0.00926858 0.015896136 0.010983793
000180 fc 53 40 3a 79 cd a0 3c 73 cf 9e 3c fa d6 4f 3c
       0.00073367334 0.019629227 0.019386029 0.012685532
000190 77 ba 6f 3c e0 6f be 3c e0 48 e6 3c b2 44 aa 3a
       0.014631859 0.023246706 0.028110921 0.0012990444
0001a0 75 65 e9 3c 2d aa af 3c a4 65 94 ba 4a e0 fc 3b
       0.028490761 0.02144345 -0.0011321795 0.007717167
0001b0 0d 25 84 3b fd 9f 54 3b 2c a2 42 3c 05 95 e5 3b
       0.004032737 0.0032443993 0.011879485 0.00700629
0001c0 45 7f a2 3c 7c 3b 19 3c 15 ba 94 3c 43 a7 ac 39
       0.019836077 0.009352561 0.018155137 0.00032931016
0001d0 67 5e dd 3c 2a 6e cb 3b 92 85 e1 3c f5 18 04 3a
       0.027022554 0.006208201 0.027529512 0.0005039119
0001e0 f2 7b aa 3a e6 2c 01 3c 59 e3 ba 3b 21 23 5f 3c
       0.0013006909 0.00788424 0.0057033715 0.013619215
0001f0 af f7 cf 3b ce 2c 0a ba cf 10 e5 3c 2c 7f e8 3c
       0.006346665 -0.00052709586 0.027962117 0.028380953
000200 2c 1f 12 3c 17 a7 ef 3c 2a 85 fe 39 8e 38 c9 3b
       0.008918565 0.02925448 0.0004854587 0.006140775
000210 7d 8a c8 3b 66 b1 1d 3c af 0e 36 ba 53 c7 e5 3c
       0.0061200247 0.009624815 -0.0006944937 0.028049147
000220 69 a1 e4 3c 92 ec af 3a 2d fb d3 3c 16 0c 9c 3c
       0.027908998 0.0013421944 0.025876606 0.019048732
000230 09 dd e0 3c c2 8a 24 3c 0c 5f b5 3c c6 3b 6d 3b
       0.027449148 0.010042848 0.022140048 0.0036198958
000240 b7 76 03 3c 36 f2 e9 3c 2f 20 c2 38 d7 e1 9f 3c
       0.008023909 0.028557878 9.2566355e-05 0.019516869
000250 aa 00 c6 38 54 5a 15 3c 3a e7 38 3c 8b b9 a9 3c
       9.4414994e-05 0.009115774 0.011285597 0.020718357
000260 ca b3 81 3c e9 e9 c7 3b 7a d1 f6 3b e6 df f4 3b
       0.0158328 0.0061008823 0.007532296 0.00747298
000270 4b 10 81 ba fa 39 c8 3c aa a6 9a 3c a7 13 e0 3b
       -0.0009846775 0.024441708 0.0188783 0.0068382802
000280 fa fb d5 3c 0e 8a 35 3b c1 e1 9f 3c d9 bc 98 3c
       0.026121128 0.0027700695 0.019516828 0.018644737
000290 f8 b4 97 3b b8 ca 8c 3c c4 64 06 3c dd 76 8a 3b
       0.0046297275 0.017186508 0.008202735 0.0042255954
0002a0 78 c7 de 3c 26 7e 24 3c fa fd 11 3b c3 b9 e1 3c
       0.027194723 0.010039842 0.0022276626 0.027554398
0002b0 ac d1 5c 3c 51 c2 b5 3c e3 75 c8 3c 4e 97 37 3b
       0.013477724 0.022187384 0.024470275 0.0028013769
0002c0 63 5f e6 3b 65 1c 9d 3c d8 03 9f 3c 15 28 ad 3c
       0.007030414 0.019178579 0.019411013 0.021137277
0002d0 2b 65 cd 3c 25 d3 23 3c 4e e0 6a 3c a4 56 c9 3c
       0.025072655 0.009999071 0.014335705 0.024577446
0002e0 9f b7 91 3c 99 3b df 3c fe 0e 61 ba ef bc 31 3c
       0.017787753 0.027250098 -0.0008585303 0.010848268
0002f0 10 42 52 3b 91 cf d8 3c 2a b4 08 3c fd cb aa 3c
       0.0032082833 0.026466163 0.008343736 0.020849222
000300 aa 69 89 3b a1 4c cb 3c cc 5f 9d 3c 8e e8 b9 3c
       0.0041935043 0.024816813 0.019210719 0.022693899
000310 36 e0 e3 3c 39 24 59 3b 5e 64 d6 3c 8e bf 9f 3a
       0.027816873 0.0033133163 0.026170906 0.0012187825
000320 7f 3c e8 3c 65 4f a1 3c 1e 43 c7 ba 0a dc 26 3c
       0.02834916 0.019691179 -0.0015202498 0.010184297
000330 24 f0 a3 3a c6 21 a3 3c ef d6 00 3c ac f3 97 3c
       0.001250748 0.019913565 0.007863744 0.018548809
000340 d4 c3 eb 3b 93 c6 14 3c 82 86 97 3b 38 74 89 3c
       0.0071949754 0.009080547 0.004624189 0.01677905
000350 42 23 38 3c b6 a3 b9 3c 15 62 a9 3b 0d 4d d9 3b
       0.011238875 0.022661071 0.005169163 0.0066314996
000360 70 3e dd 3a 51 62 b0 3c 12 9b 3f 3c d8 73 49 3c
       0.001687957 0.021531256 0.0116946865 0.012295686
000370 7b e6 5c 3c e4 21 f0 3c a9 7e a6 3c 19 3e 8a 3c
       0.013482685 0.029313035 0.020324068 0.016875314
000380 d9 2c 3e 3c 18 8e 86 3c c6 d2 46 3b c1 b6 bf 3c
       0.011607372 0.016425177 0.0030338033 0.023402574
000390 fd db 66 3c e4 ed 8c 3b e6 64 af 3c 81 fe c5 3b
       0.014090535 0.0043008197 0.021410417 0.006042302
0003a0 85 3f b8 3a ca 88 b9 3b c9 b1 c6 3c ff 8f 9c 3c
       0.0014057016 0.0056620585 0.024254696 0.019111631
0003b0 0e b5 63 3c b7 49 ea 3c 1f c3 73 3c 25 e2 e4 3c
       0.013898147 0.028599603 0.014878063 0.027939865
0003c0 89 17 2e 3c fe 39 12 3c 40 63 12 3c 8f 1f c8 3c
       0.010625728 0.008924959 0.008934796 0.02442911
0003d0 86 ed 86 3b 3d bd 38 3c a1 07 c4 3c db 26 f1 3c
       0.0041176705 0.011275587 0.023929419 0.029437473
0003e0 e6 0e 34 3a e6 61 a3 3b 4d d4 bc ba 32 e1 d5 3c
       0.0006868675 0.0049860356 -0.0014406532 0.026108358
0003f0 d8 bb 3b 3c 6e d2 b9 3c 85 d3 c2 3c 74 3c 69 ba
       0.01145836 0.022683349 0.023782501 -0.0008897253
