surrogate/ridge_second_surr2.pt (torch, 14803 bytes, 1 tensors)

weight f4 [1, 3216]
000000 55 32 2d 3a 2c 26 9a 3c 81 a7 e4 3b 75 f5 90 3c
       0.00066069263 0.01881703 0.006977976 0.017695168
000010 13 06 c8 3b 43 45 06 3c fe b3 62 3b 3e dc 7e 3c
       0.0061042397 0.008195224 0.0034592147 0.0155554395
000020 8f 4e 21 3c b9 eb af 3c 34 ed 87 3b 73 91 b7 3b
       0.00984539 0.021474706 0.00414815 0.0056020557
000030 e9 c1 24 3a a1 5e a0 3c 37 38 32 3c a4 b5 34 3c
       0.00062849984 0.019576373 0.0108776605 0.011029635
000040 27 ae 4e 3c df 53 e0 3c 61 dc 97 3c 21 2b 88 3c
       0.012614763 0.027383743 0.018537702 0.016622128
000050 25 ce 29 3c ad 5e 73 3c 48 45 05 3b aa 44 ae 3c
       0.01036409 0.014854115 0.0020335484 0.021272976
000060 c9 f1 49 3c 07 b0 53 3b 0c 8b 9e 3c 4e f3 a4 3b
       0.0123257125 0.0032300965 0.019353412 0.005033887
000070 a5 ff de 39 f9 a8 95 3b 5f 9a b7 3c 32 3b 90 3c
       0.0004253361 0.0045672623 0.022412477 0.017606352
000080 4b a2 4a 3c a7 44 da 3c 31 20 5e 3c f4 4a d4 3c
       0.012367795 0.026644064 0.01355748 0.025914647
000090 5e d0 13 3c 94 c0 fb 3b 96 ef fd 3b 3a 2a b6 3c
       0.009021847 0.007682869 0.007749508 0.022236932
0000a0 80 52 5c 3b a8 20 21 3c 82 1a ad 3c db fe d6 3c
       0.003361851 0.009834446 0.021130804 0.026244571
0000b0 fc fc 91 b9 df 58 6f 3b 00 a7 11 bb ec f3 c1 3c
       -0.00027845043 0.0036521477 -0.0022224784 0.023675881
0000c0 03 4b 2b 3c 36 29 a8 3c 20 19 ba 3c a7 20 03 bb
       0.010454896 0.020527463 0.022717059 -0.0020008476
0000d0 b7 7a ae 3c 50 7f 7d 3c 21 45 4e 3c 9e 02 e8 38
       0.02129875 0.015472248 0.012589724 0.000110631096
0000e0 c8 d6 cd 3c 03 08 fb 3a 60 87 4e 39 98 3c 50 3c
       0.02512683 0.0019152168 0.00019696122 0.012709759
0000f0 f7 50 02 3b a8 70 b5 3c 3b 68 b3 3a d6 71 ce 3c
       0.0019884685 0.022148445 0.0013687679 0.025200766
000100 33 ff 88 3c e9 b3 8b 3c 13 a8 86 3c da 72 21 3b
       0.016723251 0.017053561 0.016437566 0.0024635107
000110 46 fe b3 3c 06 92 e8 3b 3b d4 e1 3c de df 92 3b
       0.021971833 0.0070974855 0.02756702 0.0044822535
000120 99 70 da 3b f1 ab 8a 3c 16 80 5e 3c 70 b9 96 3b
       0.0066662547 0.016927691 0.013580343 0.0045997426
000130 8a dc bf 3c ca 18 d9 3b b5 f6 aa 3b 9b e4 d1 3c
       0.02342059 0.0066252695 0.005217398 0.025621703
000140 92 9f 0d 3c 79 8c 12 3c 7a fe 7e 3c 58 a1 2e 3c
       0.008644002 0.008944624 0.015563602 0.010658585
000150 53 16 02 3c 9f 9f 16 bb cc 0f 81 3c f8 86 1e 3c
       0.007939893 -0.0022983325 0.015754603 0.009675734
000160 99 02 6c ba 85 19 97 3c 25 10 2a 3c 8d 3c 3b 3c
       -0.00090030726 0.018444786 0.010379826 0.011428011
000170 cd 78 fc ba 42 ef d6 3c 72 19 ee 3b 08 ba 57 3c
       -0.0019262076 0.026237134 0.007266217 0.013166912
000180 05 6f 14 3b e6 dd de 3b 4f e6 34 3c 10 ba b1 3c
       0.002264918 0.0068013547 0.011041238 0.021695167
000190 3b 4c 97 3b a1 4b dd 3b d7 8c e4 3c 88 f2 d3 3b
       0.0046172417 0.0067534004 0.027899189 0.006468121
0001a0 df b2 50 3a db cd a1 ba cf 01 68 3c cd cf 12 bb
       0.0007961224 -0.0012344675 0.014160587 -0.002240169
0001b0 ed 64 09 3b 85 84 54 3c 5a 9e c2 3c fc 12 d1 3c
       0.0020964697 0.012971048 0.023757149 0.025521748
0001c0 38 e1 1c 3c f4 2e 01 3c 02 51 97 3c 50 03 bd 3c
       0.009575181 0.00788473 0.018471245 0.023072869
0001d0 ea d5 bd 3c b8 8e c4 3c 3e 96 b8 3c 44 69 5a 3b
       0.023173291 0.023993835 0.022532579 0.0033326903
0001e0 7e 33 d0 3c b0 51 7f 3c e4 92 a6 3c e4 2a e7 3c
       0.025415178 0.015583441 0.020333715 0.028218694
0001f0 ca d5 c5 3c 57 41 ca 3c 9c 8d e1 3c d7 38 28 3c
       0.024149794 0.02468936 0.027533345 0.010267458
000200 7e 9f d6 3c 13 f8 28 ba 0e 87 e7 3b c2 f1 8b 3c
       0.026199099 -0.00064456573 0.0070656603 0.017083053
000210 67 1e a9 3c 66 82 bb 3c f9 6e 35 3c 9d 32 94 3c
       0.02064438 0.022889327 0.011073821 0.01809054
000220 e2 73 b9 3c 85 6d a0 3a f0 7a 61 3a bc b2 de 3c
       0.022638265 0.0012239671 0.0008601388 0.027184837
000230 83 bd 8a 3c 0d cc 28 3c 7f 70 8d 3b 70 eb 35 3c
       0.01693607 0.010302556 0.004316389 0.011103496
000240 24 b2 47 3c b9 79 23 bb 45 06 59 3c f1 d4 7f 3c
       0.012188468 -0.0024944379 0.013246124 0.015614734
000250 41 c8 d9 3c 78 ee e1 3b 18 de 4d 3b e1 f0 b1 3c
       0.026584746 0.006894883 0.0031412896 0.021721305
000260 36 83 08 3c b5 c6 98 ba 7f 6a 45 3b 0f 1b 6c 3b
       0.008332064 -0.0011655899 0.003012329 0.003602687
000270 38 4f 4c 3c e8 f2 f8 3a 02 12 8f 3c 56 b9 bd 3c
       0.012470059 0.001899329 0.017464641 0.023159664
000280 13 e3 14 38 44 3f 9b 3c 9a 13 48 3c 5c 91 ca 3c
       3.549743e-05 0.018951066 0.012211705 0.024727516
000290 42 c0 51 3c f2 24 96 3c 87 44 0e 3c 33 a4 d8 3c
       0.0128021855 0.018328164 0.00868333 0.026445484
0002a0 6b d8 e5 3b e1 50 61 3c 35 92 b9 3c b3 c4 cc 3c
       0.0070143244 0.013752193 0.022652725 0.024996137
0002b0 8f 5b e3 3c 96 e8 bb ba 45 ca 86 3c d5 61 5e 3c
       0.02775362 -0.0014336284 0.016453872 0.01357313
0002c0 bc c7 3f b7 3d bf 76 3c db 8a 42 3b 75 4a 96 3c
       -1.1430991e-05 0.015060243 0.0029684815 0.01834605
0002d0 96 3e 85 3b 88 b5 23 3c 1d 1f f1 ba be 67 a9 3c
       0.0040662987 0.009992011 -0.0018396113 0.020679351
0002e0 9c 5b a2 3c 0c a1 aa 39 c5 2f 5c 3c e6 8c da 3c
       0.019819073 0.00032544916 0.0134391235 0.026678514
0002f0 f5 fd 64 3c f7 46 28 3c 4c 7c d0 ba ce 98 85 3b
       0.013976564 0.010270826 -0.0015906184 0.0040770536
000300 0c e0 47 3b ca ae 99 3c bd b0 8c 3c ea 58 c2 3c
       0.0030498533 0.018760104 0.01717412 0.023724038
000310 e3 a8 62 3a 02 03 9b 3c 96 53 4d 3c 1b c7 e4 3c
       0.0008646382 0.018922333 0.0125321355 0.027926972
000320 83 fe c4 3c 2e eb 1a bb 51 69 69 3b 1f 24 dd 3a
       0.024047142 -0.0023638713 0.0035615752 0.0016871727
000330 14 23 94 3c 0b 5d ab 3c a0 81 16 3b 9b 19 41 3c
       0.018083133 0.02091839 0.0022965446 0.01178589
000340 e4 d3 9f 3c e2 78 21 3c 24 5e c4 3c 3d 94 25 3c
       0.019510217 0.009855481 0.023970671 0.010106144
000350 4d 4c 2c bb dc 60 74 3c d0 e1 d9 3c b9 12 08 bb
       -0.0026290596 0.014915671 0.026596934 -0.0020763113
000360 5c 0a 97 3c 2e a8 19 3a 1a 17 c7 3c c3 82 a3 3c
       0.018437557 0.00058615475 0.024303008 0.019959813
000370 dd 30 18 3c 7d 96 93 3b cd 9d 06 3c 6d 14 da 3c
       0.009288994 0.0045040236 0.008216334 0.026621068
000380 ae c7 03 3b 02 f1 94 3b 8c 39 e7 3c 76 7c ed 3b
       0.0020108032 0.004545332 0.028225683 0.007247503
000390 93 4c e3 3c d8 a4 a4 3c 17 96 82 3b 48 d6 91 ba
       0.027746474 0.020098135 0.0039851773 -0.0011126483
0003a0 a9 91 dd 3c 0e 76 b6 3c a3 fc a7 3c 85 32 70 3c
       0.027046995 0.02227309 0.020506209 0.014660482
0003b0 93 b0 10 3c 4a 9c bd 39 7f 53 b7 b8 77 71 9b 39
       0.008831161 0.00036165334 -8.741672e-05 0.00029648442
0003c0 b9 2b cf 3c a7 0b 83 3b a7 2d dc 3c 3d c6 ad 3c
       0.025289403 0.003999192 0.026877237 0.021212691
0003d0 24 fb 64 3c e3 65 3b bb 51 c4 d6 3b 89 31 8b 3c
       0.013975892 -0.0028594665 0.0065541645 0.016991394
0003e0 8d 44 4b 3c 6e fb c3 3c 3f e2 af 3c 00 65 6a 3a
       0.0124064805 0.023923602 0.021470187 0.0008941442
0003f0 df c8 2a bb dd b5 b4 b9 b8 5d 9b ba 76 2f f6 ba
       -0.002605967 -0.00034467774 -0.0011853492 -0.0018782455
