surrogate/ridge_second_surr_trial.pt (torch, 4071 bytes, 1 tensors)

weight f4 [1, 512]
0	0x3b457ad1	0.0030133019
1	0x3d42549d	0.047443975
2	0x3c6b3353	0.014355498
3	0x3d9a1616	0.07523744
4	0x3d3c30d5	0.045945007
5	0x3c84717c	0.016167395
6	0x3d019aed	0.03164189
7	0x3d5c4c95	0.05378397
8	0x3d5f3a81	0.054499153
9	0x3d47d5d6	0.048787914
10	0x3d4ec007	0.0504761
11	0x3adda23b	0.001690931
12	0x3c52ac18	0.012858413
13	0x3d71ef60	0.059066176
14	0x3d5cd75e	0.053916328
15	0x3d9c1149	0.076204844
16	0x3d910b16	0.070821926
17	0x3c1d3334	0.009594727
18	0x3d8efae4	0.06981447
19	0x3d8cf2a7	0.0688222
20	0x3c9313f4	0.01795385
21	0x3d941fe2	0.07232644
22	0x3b63bd5b	0.0034750316
23	0x3c87c4ff	0.016573427
24	0x3d93f21f	0.07223915
25	0x3d51fdea	0.051267542
26	0x3cfd4c24	0.030920096
27	0x3d789e49	0.060697827
28	0x3d9102c3	0.07080605
29	0x3c77c0dc	0.015121665
30	0x3d063495	0.03276499
31	0x3c623755	0.0138071375
32	0x3c9e729e	0.019341763
33	0x3a2abd72	0.0006513215
34	0x3d3ed080	0.04658556
35	0x3d40b6c6	0.047049306
36	0x3d747500	0.059681892
37	0x3d4294d1	0.047505204
38	0x3c5f2395	0.013619323
39	0x3d0bbd23	0.03411592
40	0x3d69faaa	0.057123818
41	0x3d53f5a8	0.051747948
42	0x3d420b68	0.04737416
43	0x3d57eca2	0.052715905
44	0x3d468071	0.048462335
45	0x3d8dab2b	0.06917413
46	0x3a0d000a	0.0005378729
47	0x3d6a813f	0.057252165
48	0x3d7f1137	0.062272277
49	0x3da13e2b	0.07873186
50	0x3c4f49a4	0.012651835
51	0x3d4552f2	0.048174806
52	0x3d8d7c20	0.069084406
53	0x3d5df668	0.05419007
54	0x3d5b67d2	0.053565808
55	0x3b29ccf5	0.0025909517
56	0x3d78755b	0.060658794
57	0x3d262d80	0.040570736
58	0x3bdc0e0f	0.006715543
59	0x3ce902ae	0.02844366
60	0x3d887759	0.06663389
61	0x3bc6af73	0.0060633956
62	0x3d8bad7c	0.06820199
63	0x3d73654c	0.059422776
64	0x3d362421	0.04446805
65	0x3d1a9b85	0.03774597
66	0x3d0f8751	0.035041157
67	0x3cd97fb5	0.026550153
68	0x3d0a634d	0.033786107
69	0x3d27e5ad	0.04099052
70	0x3d976bea	0.0739363
71	0x3cc9ca8c	0.024632715
72	0x3d109360	0.035296798
73	0x3d7838e6	0.060601138
74	0x3d264afd	0.04059886
75	0x3c3abecb	0.011398028
76	0x3ce1c563	0.027559942
77	0x3d766530	0.060155094
78	0x3d2645f9	0.040594075
79	0x3d5335d1	0.051564995
80	0x3d8ac017	0.067749195
81	0x3ccdbad2	0.025113497
82	0xb8f03939	-0.0001145475
83	0x3cdab047	0.026695384
84	0x3b5863f7	0.0033018568
85	0x3d618881	0.05506182
86	0x3d73cc90	0.059521258
87	0x3cb01cd3	0.02149812
88	0x3d307481	0.043079857
89	0x3cc94689	0.024569767
90	0x3d5895fd	0.052877415
91	0x3d8be0c5	0.06829981
92	0x3d4422ec	0.047884867
93	0x3d94f107	0.07272535
94	0x3d15eb9d	0.03660165
95	0x3d1bd3eb	0.038043898
96	0x3c28b035	0.010295917
97	0x3d38c7ab	0.045112293
98	0x3d3b2db3	0.04569788
99	0x3d7e7d3b	0.062131148
100	0x3d6707ad	0.056403805
101	0x3d444652	0.047918625
102	0x3d6bd7c1	0.057578806
103	0x3d788d7c	0.060681805
104	0x3d3040c7	0.043030526
105	0x3c8ea2cc	0.017411612
106	0x3d099d42	0.03359724
107	0x3cdecb1a	0.027196456
108	0x3b74eb6f	0.0037371775
109	0x3abaaf57	0.0014242929
110	0x3d5c91c2	0.053849943
111	0x3d8af5f4	0.06785193
112	0x3d1d9b1f	0.038478013
113	0x3d7844c1	0.060612444
114	0x3d4ce808	0.05002597
115	0x3d019237	0.031633582
116	0x3d904efe	0.070463166
117	0x3ca14bea	0.019689519
118	0x3becd2b9	0.0072272685
119	0x3d08708f	0.03331047
120	0x3d1539d5	0.036432106
121	0x3c8e4ba8	0.01737006
122	0x3d2b8a23	0.041879784
123	0x3d53b036	0.05168172
124	0x3ce89a99	0.02839403
125	0x3d8c298d	0.06843863
126	0x3d85e600	0.0653801
127	0x3d1e4498	0.038639635
128	0x3a5ee89c	0.00085032894
129	0x3cb9533a	0.022622693
130	0x3c2d6188	0.010582335
131	0x3d8a0424	0.06739071
132	0x3d81eb7a	0.06343742
133	0x3c9e52cd	0.019326592
134	0x3d8a6693	0.06757846
135	0x3cf69a3d	0.030102843
136	0x3d090554	0.033452347
137	0x3d517eb7	0.051146235
138	0x3d8e4aa0	0.06947827
139	0x3d08b0a0	0.033371568
140	0x3d887e6e	0.066647395
141	0x3cf83518	0.030298755
142	0x3c313a5f	0.010817139
143	0x3d8cc4f5	0.06873504
144	0x3c3570d1	0.011074261
145	0x3d89f7ed	0.06736741
146	0x3c489c03	0.012244227
147	0x3d925b57	0.07146328
148	0x3c9bacbd	0.019003266
149	0x3d583b81	0.052791122
150	0x3c34dd9a	0.011039162
151	0x3d5c48e7	0.053780463
152	0x3d72785b	0.05919681
153	0x3d1e2bf1	0.038616125
154	0x3cfc8586	0.030825388
155	0x3a2e2999	0.0006643772
156	0x3cf0b129	0.029381352
157	0x3d8cc89f	0.06874203
158	0x3cac0281	0.020997288
159	0x3d1aecba	0.037823416
160	0x3d19e9cc	0.03757648
161	0x3d7caa1a	0.06168566
162	0x3d17a6d4	0.037024334
163	0x3cd98e8a	0.026557226
164	0x3ced1288	0.0289395
165	0x3d9d3321	0.07675768
166	0x3d0f4795	0.034980375
167	0x3d2f3b8c	0.042781398
168	0x3d38e5f8	0.04514119
169	0x3d0c4be6	0.03425207
170	0x3c8021c7	0.015641106
171	0x3cc8f940	0.024532914
172	0x3d5eed23	0.05442537
173	0x3a451fbf	0.0007519684
174	0x3ccb236c	0.024797164
175	0x3c97e4e8	0.018541768
176	0x3ca73535	0.020411113
177	0x3d582b18	0.052775472
178	0x3d3506e6	0.044196032
179	0x3c1e27f1	0.009653077
180	0x3d26951e	0.040669553
181	0x3d01947e	0.031635754
182	0x3d7ebf95	0.062194426
183	0x3d6ce31d	0.05783378
184	0x3cba8941	0.022770526
185	0x3d85f731	0.06541289
186	0x3d881fb7	0.06646674
187	0x3cdd5794	0.0270193
188	0x3d86b74f	0.06577932
189	0x3d931d4d	0.07183323
190	0x3d39b975	0.04534288
191	0x3cdd28a7	0.026996924
192	0x3d78bc11	0.06072623
193	0x3d31fd1c	0.043454275
194	0x3c68d8bf	0.014211833
195	0x3d54966b	0.051901262
196	0x3bda5ac2	0.006663651
197	0x3cb585b3	0.02215848
198	0x3d270f53	0.0407861
199	0x3d5fc409	0.054630313
200	0x3d97d234	0.0741314
201	0x3d4a4b68	0.04938832
202	0x3cee492d	0.029087627
203	0x3d133662	0.035940535
204	0x3b5ceaca	0.003370928
205	0x3c122b47	0.008921451
206	0x3b6956fa	0.003560482
207	0x3d4dd79e	0.050254457
208	0x3cfdd54e	0.0309855
209	0x3d8a7cc3	0.06762078
210	0x3d5fee6e	0.054670744
211	0x3c819196	0.015816491
212	0x3d9011ba	0.07034631
213	0x3d5855d3	0.052816223
214	0x3d65514c	0.055985734
215	0x3d6c01d1	0.05761892
216	0x3cf05da5	0.029341528
217	0x3d93f977	0.07225316
218	0x3d7244c3	0.059147608
219	0x3d7ecfe6	0.062209986
220	0x3bba41c1	0.005684108
221	0x3c83a2a2	0.01606876
222	0x3c433c8e	0.011916293
223	0x3bff6961	0.0077945446
224	0x3d73450b	0.059392016
225	0x3d13a584	0.03604652
226	0x3d929fd1	0.07159389
227	0x3d255e82	0.040373333
228	0x3d812d34	0.0630745
229	0x3cf414f5	0.02979515
230	0x3c87cbc6	0.016576659
231	0x3c4ebfa1	0.01261893
232	0x3d431275	0.047625024
233	0x3cb1acb1	0.021688791
234	0x3d32108f	0.043472823
235	0x3d1ea1c4	0.03872849
236	0x399d1b2c	0.00029965618
237	0x3c558d84	0.013034228
238	0x3bcc56d8	0.0062359385
239	0x3d140251	0.03613502
240	0x3d81ec0e	0.06343852
241	0x3d4b6e49	0.049665723
242	0x3c972a88	0.018452898
243	0x3d7be599	0.06149826
244	0x3d4f1ac3	0.05056263
245	0x3cf56d7e	0.029959437
246	0x3d0ec9b4	0.034860328
247	0x3b108302	0.0022050743
248	0x3d14806f	0.036255296
249	0xba705cc3	-0.0009169096
250	0x3b2c9f9e	0.0026340256
251	0x3c89c49f	0.016817389
252	0x3d8dd228	0.0692485
253	0x3d2ad4ea	0.041706957
254	0x3d2805b8	0.04102108
255	0x3d5bc7cb	0.053657334
