surrogate/ridge_second_surr_embed.pt (torch, 4071 bytes, 1 tensors)

weight f4 [1, 512]
00000000: 96ca f93c adab 843d 0b62 df3c de82 2f3c
00000010: 3475 0c3c 039b af3c ff5a 26b9 5d71 923d
00000020: a0c2 043d 118b 8a3d f57b f03c c52a 003d
00000030: fc26 543d 8679 193d dcb2 533d b8e9 6c3d
00000040: 4815 813d 5a3d f73c 8951 843c 04c4 c83c
00000050: 8231 063d 026b eb3c 80bc 703d bc5e 7b3d
00000060: 1a61 283d 0eb7 113d e519 303c 817f 4e3c
00000070: c33b ef3c 32ac 953d 7051 3c3d 3276 1f3d
00000080: dadf 373d 9a96 573d bd93 903c 82c0 723d
00000090: d2af 8a3d 5740 883d a8ec 743d 763a 763d
000000a0: 9cad 933d bf93 f23b cb72 823d 666e cc3c
000000b0: 177f fb3c f3f3 9a3c f63c 8c3c 839d 253c
000000c0: 5d39 2a3d 162f 203d 814f 6e3d 6cdc 5f3d
000000d0: ef4a 833d adae 063d 8f9a 6c3d 47ac a93c
000000e0: a632 b13b 822d 3d3d c069 0d3c 0d13 8a3d
000000f0: 9c72 4c3d bcaf 823c 0a2f e23c 87d9 f63c
00000100: b2ba 9e3c d4d7 3a3d d442 f13c 1d3b 8a3d
00000110: 2c95 b13c b285 703d 423c 843d 9b7c 4b3d
00000120: 1c32 db3c f315 963d bce8 883c 3a9d 8e3c
00000130: 9067 9c3d d91e 0b3c c2b8 823d bc57 823d
00000140: a6a4 723b d3d8 6a3d 6d2e 583d 320f 483d
00000150: 17b4 eb3c 2622 bc3c 3fdd 113d b425 8c3c
00000160: 922b 633d 9e7d 623c 5716 453d f137 263c
00000170: 3f0b 603d e96c ab3c b883 9c3d 2c01 893d
00000180: baec 853d b341 333d 46ea 133d bfde 033c
00000190: 1d46 503d f082 333d 2448 913d 0bcd f63b
000001a0: 1755 873c d76f 903d 1418 8c3c df5f 4c3c
000001b0: 850a 2f3c bc4b d03c f7c7 8c3d 0424 483d
000001c0: e77c 1f3d f057 543d 6948 953d c36d 7d3d
000001d0: 54ea 5b3d 83fd 1d3d 1ced 7f3c 9bce 203d
000001e0: 6027 493d 5aae d53c 129f 903d 2418 a83c
000001f0: 8b4e 4f3d 5c20 d93c c258 3f3d 4a04 983d
00000200: a5a1 533d a941 813d 48dc 3d3c 1c69 41b9
00000210: b4e1 4e3c d6a8 173d aff7 7d3c 3b90 933d
00000220: 5710 013d 886c 633d 5b53 ca3c 851a bb3c
00000230: f0a8 243d 82f7 7d3d 01c3 d33c 0bc0 923d
00000240: 75b8 083d b81f 103d f3fc 203c db8b 8d3d
00000250: 5a6b 773d 5b0f bd3c a4ff 1c3d f2fc 893d
00000260: 02f3 0a3d 06e3 0d3c 4f6c 8c3d 9bb7 223d
00000270: 61aa cf3c 5b58 483d bc25 673d 1688 b93b
00000280: 6c70 ae3c 81e5 163c cda4 8e3c b8d0 8d3d
00000290: be63 5e3d 2bfb 063c 46a6 323d 34bf 143d
000002a0: 7b84 733b 79fd 5a3d 0c3d 2d3d b9d3 563c
000002b0: 71cd 993c 6f01 4f3d 8778 a53c 8efe 3f3d
000002c0: 3858 913d 1599 e83c d96c 8f3c 9327 723d
000002d0: 7df9 283c 58fa 743a 90f3 673d 0aa7 9a3b
000002e0: a788 783d 5f4f 8e3c cf19 133d d4bc 4a3d
000002f0: 7b85 803d 711f bb3c 851e 673d 7821 633d
00000300: afd6 613c d866 083d c54f 603d 6b34 0b3d
00000310: bbe0 183b a767 823d df3a 223d 9b5e 913d
00000320: f694 303d 05b7 fd3c a4bc 8c3d 9f8f 233d
00000330: 3077 9c3d 5426 623d 517f 243d f2e1 b53c
00000340: da8b 4d3d cd5d 8e3d a002 963d 6945 ac3c
00000350: cd4b 823c f93d 333d 3d33 4b3b 31ce 893d
00000360: 604f 983d d032 b03c ecd2 493d c6e0 7e3d
00000370: d8db 7a3c c283 c63c a542 c53c fd0a 103c
00000380: ba83 983c f358 083d 7f0f 323c 9932 7b3d
00000390: 2bc9 363d 9c98 6b39 3962 763c cb30 903d
000003a0: 27b0 0e3c 8fb9 363b 969a 6b3d a165 b23c
000003b0: f2b3 f43c e5cb 443d 486a 913d 2ede ee3c
000003c0: 7278 843d 4886 523d ee27 2c3d f4b5 5e3d
000003d0: ad93 8c3d 91b6 0e3d 13bf 9e3d ab27 803d
000003e0: 6e01 973d c174 aa38 36c2 603d cddf 253d
000003f0: 4990 483d aa51 7f3d 36c8 643d b7fb 863d
0.030492108 0.06478057 0.02726843 0.0107123535 0.008572865 0.02143622 -0.00015864892 0.071505286
0.03241217 0.06764806 0.029355982 0.03129079 0.05179499 0.03746941 0.051684245 0.05784008
0.06302887 0.030180622 0.01615216 0.02450753 0.032762058 0.028737549 0.058773518 0.061369643
0.04110823 0.035574965 0.010748361 0.0126036415 0.029203301 0.07308234 0.045976102 0.03893108
0.044891216 0.05263386 0.017648572 0.05926562 0.06771816 0.06652897 0.059796005 0.060114346
0.07210848 0.0074028666 0.06369551 0.024954986 0.03070025 0.018915152 0.017118912 0.0101083545
0.041558612 0.039107405 0.05818129 0.05465357 0.06410777 0.032881428 0.057764586 0.020712031
0.005407649 0.046185978 0.00863117 0.06741915 0.049913988 0.015952937 0.02761032 0.030133022
0.019376133 0.045615986 0.029450811 0.06749556 0.021677576 0.05872125 0.06456806 0.04967938
0.026757292 0.07328405 0.016712539 0.017408956 0.076369405 0.008491241 0.06382896 0.0636439
0.0037024408 0.057335686 0.05277865 0.048842616 0.028772397 0.022965502 0.035611387 0.017107822
0.055461474 0.013823895 0.048117008 0.010145173 0.054698225 0.020925956 0.07642311 0.06689677
0.06539293 0.043763828 0.036112092 0.008048712 0.050848115 0.043826044 0.07093838 0.0075317672
0.016520066 0.07052582 0.017101325 0.012474029 0.01068366 0.025426738 0.06874078 0.048862472
0.038937476 0.051841676 0.07289202 0.061872255 0.05369027 0.038571846 0.015620496 0.039259534
0.049109817 0.026084114 0.0706159 0.020519324 0.050612014 0.026504688 0.046715505 0.07422693
0.051667828 0.06311352 0.011588164 -0.0001844507 0.012627054 0.03702625 0.015500947 0.07205244
0.031509724 0.055523425 0.02469795 0.022839794 0.040200174 0.06200362 0.025849821 0.071655355
0.033379037 0.0351865 0.009825933 0.06911441 0.060405113 0.023078611 0.038329735 0.067376986
0.033923157 0.008660084 0.06856596 0.03972588 0.025349798 0.048912387 0.05643247 0.0056619747
0.021293841 0.009209991 0.017412568 0.069245756 0.05429434 0.008238594 0.043615602 0.036315158
0.0037157822 0.053464387 0.042294547 0.013112002 0.01877472 0.050538477 0.020199073 0.04687362
0.070969045 0.028393308 0.017507957 0.059119772 0.010313389 0.00093451655 0.056628764 0.0047196196
0.060677197 0.017371831 0.035913285 0.049496487 0.062754594 0.02284214 0.05642559 0.05545184
0.013784095 0.033301204 0.054763574 0.033985537 0.002332731 0.06367426 0.039606925 0.07098123
0.04311081 0.03097106 0.06871918 0.03993189 0.07639921 0.055212334 0.04016048 0.022202466
0.0501822 0.06951485 0.073247194 0.021029191 0.015905285 0.043760274 0.0031005882 0.06728781
0.074370146 0.021508604 0.049273416 0.06222608 0.015311204 0.024232749 0.02407963 0.008791682
0.0186175 0.033287954 0.010867952 0.06132755 0.044625442 0.00022468198 0.015038067 0.070405565
0.00870899 0.0027881598 0.05752047 0.021776976 0.02987096 0.04804601 0.0710035 0.029158678
0.064682856 0.05139759 0.042030267 0.054372743 0.068641044 0.034842078 0.07751288 0.06257566
0.073733196 8.127979e-05 0.054872714 0.040496636 0.048965726 0.06233374 0.055855 0.065909795
