surrogate/surr_lin_reg_split_only_find.pt (torch, 8861 bytes, 3 tensors)

weight f4 [3, 512]
00000000: fa9f 913b 3e6c 3d3d 1a39 443d ad6f 763d
00000010: 1379 943d d7f5 f13c a4c0 1abc af9b ae3c
00000020: 03ed 21bc b561 76ba 2dbf 9e3c 382b a13c
00000030: bf6b 213c c48a 673d c9a6 e7bb fda0 5d3c
00000040: 00e1 373d b958 9d3c 1c57 2ebc 9400 49bc
00000050: 9b00 7f3d 2956 bb3c 507c 743d cc57 2a3d
00000060: 16f4 a7bb d080 b33c 54b9 803d 7a97 153d
00000070: 90ca e538 fe4b 0c3d caf8 443d 73fc 403d
00000080: 5f02 3a3d 4f8e 833c 4b00 513d ae6a 283c
00000090: c460 5d3c 6d0d 94ba 2987 beba 3764 8b3b
000000a0: af1d 93bb 5f4c ca3c 10b9 9cb9 a31b 7d3d
000000b0: 2f5c 403d 1b4e 2d3d bdae 943d 11c1 503d
000000c0: e9e9 d13c a1bd 5f3d f337 e43b 5493 2b3c
000000d0: 49c6 123d 2e64 713c 52dc 423d 51e7 123d
000000e0: e81a 4bbc 3d3f 8e3d 7768 bcb9 d82d e6bb
000000f0: f674 153b a836 903d eba7 063d d046 0a3c
00000100: 98a9 403d ec8b e13c 4617 793d b8ef 383d
00000110: 5228 06bc fcb8 823d da65 efba abee 013d
00000120: 91b6 db3c 1312 dcbb f97c 263d 76ad cd3c
00000130: 9745 8a3d 4b34 853d 5751 df3c 7525 663d
00000140: c94a 433d 3180 943d 921a ac3b d134 7a3d
00000150: cdde 943d 138d 283d f42d 1f3c cb57 443d
00000160: 9502 123d f6d6 a43b bade fb3c 2c2e 833d
00000170: 7d03 3a3d d931 0a3d ddd6 c3bb 0c22 5a3d
00000180: d8cf e73c 305a 713b 2d25 07bc ac06 78bc
00000190: a2a3 113d ce30 563d 3db0 913d 8c33 563d
000001a0: d8ac 153d 5005 f93c bbdb 2b3d 176a dfbb
000001b0: a17f c43c bcfd 183d be1b 5a3c 952c 553d
000001c0: 45b4 6f3c 8f0f 3a3c 6e2d 843d 47cd 8e3c
000001d0: 7da2 b3ba ebbe 943d fb6f 583d b8c6 82bb
000001e0: 894e 8e3c bb46 693d 7167 343d d6d4 2e3d
000001f0: 6fbf 583c 5848 263d e1a4 cb3c 6b9a bf3b
00000200: a700 843c b754 ec3c 636b 603d aaf8 883d
00000210: 5ae6 4f3d 2db6 eb3c 97f0 893d eb9f 573c
00000220: 9833 7c3d aa17 963d 8fb4 ab3c 2753 963d
00000230: 39a1 283c 44c9 3c3d 36bb 8a3d c9b4 933d
00000240: 9743 343d 6b7f 663d 7664 32bc 4c52 833d
00000250: 4b38 4e3d 29e3 c13c b012 873c 26cf 173c
00000260: ad92 b33b b8d2 603c 1826 acb9 c82f 213d
00000270: 176a 2d3d 4633 1b3d 291b 7c3d 11af c53b
00000280: c7ee c23b c5c5 103d 8b34 9d3c ffed 583d
00000290: bcea 7dba 53ed 153d 52ac 0a3d 7cab 683d
000002a0: a571 2e3d cc0b 943d 5cb0 523d 5d6c 6c3d
000002b0: cfe9 0c3d d7f8 b43b e802 163d 07f3 c13c
000002c0: f4e4 1c3d 086a 8c3d ea51 183d 8c81 b33c
000002d0: 5edc 913c dd5f 773d 0471 853d 775f c33b
000002e0: 64e1 0a3d 61b8 623b e6e1 0a3d c7c3 4e3d
000002f0: c8b9 773c 6c7a b33c 756c 153d 9421 a33c
00000300: 5a65 3d3d d5bb c33c 3002 813d 61e6 913d
00000310: fa7e 033d ac8b 683d 674f 4a3c 3326 263c
00000320: 0376 083d e5a6 293d 30a0 003d 7d92 173d
00000330: d289 963d 16ff 3a3d dd82 7e3c 1d04 7c3d
00000340: 1790 fd3c 0f8c 963d d9b6 7d3d e301 f23c
00000350: 453a 643c 8fe0 01bc 17d0 7a3d 10d7 2a3d
00000360: 6ea8 373d 4d96 df3b 78bd 6c3d 28dd fb3c
00000370: 5190 0fbc 0275 5bbc e4c3 4a3d eae6 0a3d
00000380: ac34 153d 6408 c8ba f225 6e3a 41be 7c3d
00000390: b0f6 0d3d 5bb3 c63c 7c1c e6ba 7076 22bc
000003a0: e66a a0bb 8cfc 703d e7cd 4cbc 6ff4 2a3d
000003b0: 0a54 963d 7e13 d53c d8f0 033c 867e 663c
000003c0: 5406 3d3c 101d 1a3d 360c 28bc 1b2b 8e3d
000003d0: 5cbf 823d e22a 563d 656a 843d f780 eabb
000003e0: 8b7f 393d 27db 073d 1a4a 723d 4079 863c
000003f0: a49b 7f3d 2cb4 533d 1bb9 413d 5366 313d
0.0044441195 0.046245806 0.04790602 0.060165096 0.072496556 0.02953617 -0.009445343 0.02131447
-0.009883168 -0.0009398715 0.01937827 0.019673929 0.009852349 0.05652882 -0.007069443 0.013527152
0.04489231 0.019207345 -0.010640886 -0.012268204 0.062256437 0.022868233 0.059688866 0.041587636
-0.005125533 0.021912009 0.062853485 0.036521412 0.00010957301 0.03425216 0.048088826 0.047115754
0.045412418 0.016059069 0.05102567 0.010279341 0.01351184 -0.0011295505 -0.001453613 0.00425389
-0.0044896225 0.02469462 -0.0002989252 0.061793935 0.046962913 0.042310815 0.07259891 0.050965372
0.025624232 0.054624204 0.0069646775 0.0104721375 0.03583363 0.014733357 0.047573395 0.03586513
-0.012396552 0.069456555 -0.00035935987 -0.007024508 0.002280531 0.07041675 0.032874983 0.008439735
0.047036737 0.02753254 0.06081321 0.04515049 -0.008188324 0.06382939 -0.0018264607 0.031721752
0.026820453 -0.006716022 0.040646527 0.025107127 0.067515545 0.06504115 0.027260466 0.056188066
0.047678743 0.07251013 0.005252191 0.061085526 0.072690584 0.041150164 0.009715546 0.04793529
0.035646994 0.005030508 0.030745853 0.06405291 0.045413483 0.033738945 -0.0059765414 0.053255126
0.02829735 0.0036827438 -0.0082486095 -0.015138309 0.035556443 0.052292638 0.07113693 0.052295253
0.03654179 0.030398041 0.0419576 -0.006818067 0.02398664 0.037351355 0.013312278 0.05204447
0.014630382 0.0113562485 0.064539775 0.017431868 -0.0013705041 0.07262977 0.052841168 -0.0039909743
0.017371433 0.05695222 0.044043962 0.042683445 0.013229235 0.040596336 0.024858894 0.0058472655
0.016113592 0.028848989 0.054789912 0.06688054 0.05075679 0.028773392 0.06735342 0.013160686
0.06157264 0.07328732 0.02096012 0.07340079 0.010292345 0.04609038 0.06773989 0.072122164
0.04400977 0.05627386 -0.01088821 0.06412181 0.050346654 0.023667889 0.016488403 0.009265697
0.0054801316 0.013722114 -0.00032834779 0.03935221 0.042337503 0.037890695 0.06154934 0.0060328324
0.0059488746 0.035344858 0.019190094 0.052961346 -0.0009686162 0.036603283 0.033855744 0.056804165
0.04258885 0.072288126 0.05143772 0.05772053 0.034402665 0.005522828 0.036623865 0.023675455
0.038304284 0.06856161 0.037187494 0.021912359 0.017805275 0.060394157 0.06515697 0.005962308
0.033906356 0.0034594762 0.03390684 0.050479677 0.015119977 0.021908961 0.036480386 0.019913472
0.046239235 0.023893276 0.06299245 0.071240194 0.032103516 0.056773826 0.012348033 0.010140943
0.03331567 0.04141893 0.031402767 0.037004936 0.07350506 0.045653425 0.01553413 0.06152736
0.030952496 0.07350933 0.061941955 0.029541915 0.013929908 -0.007927074 0.061233606 0.041709006
0.04483836 0.006823337 0.05779788 0.030745104 -0.008762435 -0.013394596 0.049503222 0.033911623
0.036427185 -0.001526129 0.0009084634 0.061704878 0.034659088 0.024255445 -0.0017556096 -0.009915933
-0.004895556 0.058834597 -0.012500263 0.041737016 0.07340248 0.026010271 0.008053027 0.0140682515
0.011537153 0.037625372 -0.010256818 0.069418155 0.06384155 0.05228699 0.06465606 -0.007156487
0.04528765 0.033167984 0.0591527 0.016415238 0.06240429 0.051685497 0.04729567 0.043310475

bias f4 [3]
00000000: cb2b 3c3d 1588 843b f30f e73c
0.0459402 0.0040445426 0.028205847

weight f4 [1, 3]
00000000: 6e58 ef3e 5b0c f6bd 8b11 ea3d
0.46747154 -0.12014075 0.11429127
