surrogate/surr_ridge_reg_split_only_find.pt (torch, 4099 bytes, 1 tensors)

weight f4 [1, 512]
000000 b9 12 2f 3d cb f6 10 bc 14 46 45 3c bd 7b 19 3d
       0.042742465 -0.0088479025 0.012040634 0.03747152
000010 b2 0f c6 3c 93 0d 9d bc 49 27 3a 3d 83 f7 08 3b
       0.024177406 -0.019171512 0.04544762 0.0020899482
000020 08 f1 15 bc 92 1b ed 3c d8 08 81 3c 8d 35 0a 3c
       -0.009151705 0.02894381 0.015751287 0.008435619
000030 03 29 5e 3c 46 32 09 3a 0a 08 59 39 1a 05 e0 3c
       0.013559583 0.00052336266 0.00020697727 0.027346183
000040 69 0d 86 bc 28 11 f0 3c 1a 4c 4a 3c 6b 10 18 3d
       -0.016363816 0.029305056 0.012347246 0.037125032
000050 89 ab 6b bc f2 d1 3a bc fd 66 11 3d 81 43 ba 3c
       -0.014384159 -0.011402594 0.035498608 0.022737266
000060 47 61 8f 3c d9 2c 5d 3d 8e 3d ad bb 24 86 64 3d
       0.01750244 0.05399785 -0.005286879 0.05579199
000070 f5 f7 51 3d e3 aa 96 3c 43 1f 69 bb 3a b9 4a 3d
       0.05126186 0.018392032 -0.0035571612 0.049493052
000080 da c8 05 3c f5 97 13 bc eb 6a 57 3d 90 a0 c1 bb
       0.0081655625 -0.009008397 0.0525922 -0.005909033
000090 78 2c 5d 3d 1c 55 61 3d 67 43 91 3c 65 94 81 bc
       0.053997487 0.055012807 0.017732335 -0.01581783
0000a0 ec f9 05 bc c5 83 5e 3d b1 58 42 3d b2 88 94 3c
       -0.008177262 0.054324884 0.047447864 0.018131588
0000b0 39 99 4c 3d 11 45 95 bc a6 5b 2b 3d 7d 8f bf 3c
       0.049950812 -0.01822141 0.04183545 0.02338385
0000c0 44 83 38 3d 27 61 b6 3a 85 a5 03 bc dd f3 69 bc
       0.04504706 0.0013914452 -0.008035068 -0.014279333
0000d0 e2 67 3e 3d 42 f2 52 3c a8 03 4d bc 53 a8 88 bc
       0.04648579 0.012875142 -0.012513079 -0.016681826
0000e0 78 df 11 3d e9 1a 3d bb f0 5d 68 3d 0f 51 56 3d
       0.035613507 -0.002885515 0.05673021 0.052323397
0000f0 76 b2 38 3b 11 c5 ed 3c 0b ea 36 3b b8 7a 95 bc
       0.0028182543 0.029024633 0.0027910497 -0.018246993
000100 f3 3d 5c 3d 81 e8 46 3d 8e 1e 53 3d f9 48 19 3d
       0.053770017 0.048561577 0.05154281 0.037423108
000110 2a 75 6c bb ce aa dd 3c d1 18 83 bb a9 79 87 3a
       -0.0036080577 0.027058985 -0.004000761 0.001033594
000120 98 ac e0 3c 5b 88 64 3c 84 a7 20 3d 79 b1 0c 3d
       0.02742605 0.013948525 0.039222255 0.03434894
000130 8d 3d 8a 3c cb 55 3f 3d 44 bc 52 bc 92 78 b3 3c
       0.016875053 0.046712678 -0.012862269 0.021908078
000140 b3 1c 9e bc 95 36 6c 3c e6 9b 21 3d a8 d5 8c bc
       -0.019300794 0.01441731 0.039455317 -0.017191723
000150 8c c9 96 3b 48 bc 1a bc 1e e7 f0 3a 0a 95 e3 3b
       0.004601663 -0.009444304 0.0018379425 0.006945257
000160 0a bf 9f 3c 4c d0 05 3d 6d 5d 66 3d 0d 73 00 3c
       0.019500274 0.03266935 0.05624144 0.00783993
000170 f2 a6 71 bb 40 0a 18 3b 0f 27 11 3d cd fe 8a bc
       -0.0036873189 0.002319947 0.03543764 -0.016967202
000180 7f f6 46 3d 48 15 b7 3b 2c 22 58 3d 55 df e5 ba
       0.04857492 0.0055872537 0.052766964 -0.0017537872
000190 27 8f 3a 3d 3e ff 28 3d 21 d9 14 3d eb 08 96 3c
       0.045546677 0.041259043 0.036339883 0.0183148
0001a0 91 c7 b5 3b 3c 21 5d 3c 8e a6 12 3c 19 99 19 3d
       0.005547472 0.013496693 0.008950843 0.03749952
0001b0 59 30 ae 3c 7a 01 7d 3c a3 a3 31 3d fd 4b 59 3d
       0.021263288 0.015442247 0.043368947 0.053050984
0001c0 cb 8d 86 bc 71 7f 99 bc 05 35 1f 3d df bd 56 3d
       -0.016425034 -0.018737527 0.038868923 0.05242717
0001d0 e0 e1 41 3d e4 ed b5 3b 66 a9 43 bc 9d 21 15 3d
       0.04733455 0.0055520404 -0.011942243 0.03640901
0001e0 04 2c 70 3c 68 9b 84 3c 47 0f 86 3b ad ae 66 3d
       0.014658932 0.016187385 0.0040911767 0.056318928
0001f0 c7 35 50 bc 32 99 20 3d ce e2 4f 3c b3 b9 d9 3c
       -0.012708134 0.0392086 0.012688352 0.026577806
000200 71 0e b4 3c 7a b6 59 3d 97 75 ff 3c 66 45 3e 3d
       0.021979542 0.05315254 0.031184 0.046452902
000210 e7 c5 fb 3c 37 9b d0 3a a1 7c 3e bc 28 9f 9b bb
       0.030734016 0.0015915398 -0.0116263935 -0.0047491975
000220 9c 72 12 3d 77 34 3d 3d 38 22 20 3c 35 35 17 3d
       0.03575383 0.046192612 0.009773783 0.036915977
000230 b4 24 16 3d 35 c2 51 3c 01 96 8b 3c c0 d7 06 3d
       0.036656097 0.01280265 0.0170393 0.0329206
000240 d7 1f 1d 3d 2b b4 e1 3c fa dd 1e 3d e0 7a f8 3c
       0.038360443 0.027551731 0.038785912 0.030332029
000250 a6 31 0a 3d 92 65 5a bc ae 6b 36 3d bf 49 37 3d
       0.033738755 -0.01332988 0.044536285 0.044748064
000260 a0 8f 1d 3d 3f 5c 42 3d a0 22 63 bc 1c 95 1b 3c
       0.03846705 0.047451254 -0.013863236 0.009496
000270 d1 6a 4e 3d 15 b5 72 3c 9c 72 29 3d 92 dd e6 3c
       0.050394837 0.014813681 0.041369066 0.028181825
000280 ff eb 05 3d eb 05 37 bc c5 f3 00 3c 04 1b 85 3b
       0.032695767 -0.011170845 0.007870619 0.0040620584
000290 e5 47 51 bc 8b 0d dd 3c a0 8f 92 bb e4 8b 23 bc
       -0.012773489 0.026983997 -0.004472688 -0.009982083
0002a0 32 22 89 bb 64 d5 37 3d d0 40 1b bc 32 ed 96 3c
       -0.0041849846 0.04488124 -0.009475902 0.01842365
0002b0 6c 46 08 3d dc 55 b8 3c d0 91 10 3d 76 16 00 bc
       0.033270285 0.022501878 0.035295308 -0.007817855
0002c0 a3 77 29 3d 54 95 64 3b 92 0b 54 3d 80 cc ac 3c
       0.04137386 0.0034879046 0.051768847 0.021093607
0002d0 8a d1 a9 ba 86 a7 64 3c 4d a5 ad 3c ca cb b2 ba
       -0.0012956124 0.013955956 0.021196986 -0.0013641056
0002e0 37 62 e6 3c c2 dd 56 3b 9e 0b 49 3d 88 09 91 3c
       0.028123004 0.0032785987 0.049083345 0.01770474
0002f0 30 ae 5c bc 6a b9 44 3d 1d 1f 94 bb 6f f4 2a bc
       -0.013469264 0.048028387 -0.0045203106 -0.010434254
000300 8d ea 0f 3d 43 af 25 3c 6e 49 ff 3c 56 60 62 3d
       0.035135794 0.010112586 0.031162944 0.055267654
000310 a6 ca 74 3c 15 70 92 3c c3 af 29 3b fc 55 43 bc
       0.014940893 0.01787571 0.0025892116 -0.011922356
000320 4e 5e 2b bb 3e 92 85 bc 9e aa da 3c 69 23 6a 3d
       -0.002614874 -0.016305085 0.026692685 0.057162676
000330 67 25 b8 3c ea ee cd 3c e3 f7 09 3c 60 6d be bb
       0.022478772 0.025138337 0.008420917 -0.0058113784
000340 ca 00 8f bb ac f0 3c 3d b5 3e df 3b ba 48 43 3d
       -0.0043641077 0.04612796 0.006812895 0.04767678
000350 06 bf 26 3d f7 82 a9 3c 23 da a4 3b c0 36 31 3d
       0.040709518 0.020692332 0.0050308867 0.043265104
000360 6b b5 11 bc 3d bf ff 3c 68 12 a6 3c a8 55 39 3d
       -0.008893351 0.03121912 0.020272449 0.045247704
000370 a6 8a f6 3c d1 aa 42 3c 70 d5 18 bc 2d ca 1e 3d
       0.03009541 0.011881546 -0.009328231 0.03876703
000380 48 ce 84 bb 27 90 8f 3c f2 cd 01 3d ac f6 0e 3d
       -0.004052911 0.017524792 0.031690545 0.034903213
000390 c6 50 45 3d 57 3b 1a 3d f3 04 41 bb 39 bd 81 3c
       0.048172735 0.037654247 -0.0029452413 0.015837299
0003a0 b6 84 94 3c 92 4f 2c 3d 55 6f 20 3c 54 30 2a 3b
       0.018129688 0.04206807 0.009792169 0.0025968747
0003b0 3d b4 b8 3c 58 23 0c 3d 9c 5d 6f bb a3 8a 0b 3d
       0.022546882 0.034213394 -0.0036524301 0.03406776
0003c0 c5 97 a9 3c a9 10 6b bc 5e d0 2c 39 ba 4a 4e ba
       0.020702252 -0.014347234 0.00016480821 -0.00078694115
0003d0 bc f9 4e 3d f5 a7 31 3d 54 59 fd 3c 91 58 9b 3c
       0.050531134 0.043373067 0.030926384 0.01896313
0003e0 7f 9b fb 3c 27 b9 97 bb 94 d2 80 3b 46 f0 97 bb
       0.030713795 -0.004630226 0.003931353 -0.004636797
0003f0 50 5c 94 3c ce 93 fb 3c c2 0e 02 3d 01 8c 83 3c
       0.018110424 0.030710127 0.031752355 0.01605797
